model_weights/init/sarcasm/sarcasmHCFTransformer.pt (torch_old, 144933 bytes, 116 tensors)

pos_encoder.weight f4 [5000, 4]
000000 83 40 4a bf f1 cf 56 3f b3 3b 6e 3f af 95 a0 bf
       -0.7900469 0.83911043 0.93059844 -1.254568
000010 4e dc 60 bf 40 91 20 3f 75 61 81 bf 94 d6 cc bf
       -0.8783616 0.62721634 -1.0107867 -1.6002984
000020 48 53 6b 3e 5a c0 2a 3f 59 8b 3b bf 6c 6e 08 c0
       0.22980988 0.66699755 -0.732595 -2.1317396
000030 03 ba 5b 3f e2 39 27 bf 9a 47 64 3f 37 7b 83 bf
       0.85830706 -0.653227 0.89171755 -1.0271977
000040 cd 3b 96 3f e5 56 cb bd cf a3 8b 3f b4 77 04 bf
       1.1737 -0.09928683 1.0909365 -0.5174515
000050 bd 92 ed bf 9a 78 e1 bf 8e 5a 7c bd 0a e8 52 3f
       -1.8560406 -1.761493 -0.061609797 0.82385314
000060 0c 4e 59 bf e6 29 8c 3f a1 c4 0c 3e 37 5e ab 3f
       -0.84884715 1.0950286 0.13746883 1.3388127
000070 5d 0f 7c 3f 06 aa 7e bf d1 3e ee bd f5 7e 25 3f
       0.9846094 -0.99478185 -0.11633075 0.64646846
000080 26 1a d3 bd b7 fb 0e c0 dc 4e 2c 3e e6 92 1a 3f
       -0.10307722 -2.2341135 0.16826957 0.603804
000090 bd 48 cb 3f 53 8b c2 bf fe 06 d6 3e 08 9e a5 bf
       1.5881573 -1.5198768 0.4180221 -1.2938852
0000a0 88 f8 03 c0 7b 27 85 3f f0 19 60 3e 35 47 9d bd
       -2.0620441 1.0402673 0.21884894 -0.07679597
0000b0 fb be 20 bf 87 75 82 be b1 ae 29 3f 03 37 6b bd
       -0.62791413 -0.2548029 0.6628218 -0.05742551
0000c0 a4 90 0e bf 16 e5 e3 be e1 c6 cf 3e 4d db 1c bf
       -0.55689454 -0.44510716 0.4058142 -0.61272126
0000d0 ad cd 74 3f 84 0e 62 3f dc 06 ce 3e 2e c9 95 3e
       0.95626336 0.883034 0.40239608 0.2925505
0000e0 65 dc 54 3f 1b a8 5a be 3c 89 5e bf 4c 52 27 bf
       0.83148795 -0.2135319 -0.86928153 -0.6535995
0000f0 11 a7 ed 3e fa 62 2a 3f b8 05 a2 3f d6 96 4a 3e
       0.46416524 0.66557276 1.2657995 0.19784102
000100 d0 9e 93 3f c6 26 9e 3f 1e 00 a4 3e 45 94 6f bf
       1.1532841 1.2355583 0.3203134 -0.93585616
000110 9f e2 07 40 85 a3 62 bd ed c8 04 3f 09 a5 00 bf
       2.1232069 -0.055331726 0.5186909 -0.50251824
000120 ea 5e 98 3f aa 33 f9 bf 36 ae 0f 40 ef dc f0 be
       1.1903965 -1.9468892 2.245008 -0.4704356
000130 82 38 ae 3f 6e b1 9f bd 11 eb f9 3e 35 ea 06 be
       1.3610995 -0.07797514 0.48812154 -0.1317528
000140 6a ed 37 3f d1 f5 fa bf 45 16 bd 3f b7 be 42 bf
       0.7184664 -1.9606267 1.4772421 -0.7607226
000150 e0 22 c7 3e e5 4c 0a 40 85 a1 9a bf 79 3a c4 3e
       0.38893795 2.1609433 -1.2080542 0.3832586
000160 04 e4 89 bf d5 ba 87 bf 5b af ff bf 1d a1 c1 3e
       -1.077271 -1.0603892 -1.9975389 0.37818232
000170 1a 52 92 bf bd eb 76 bf 44 78 88 3f c0 9b 6d 3e
       -1.1431305 -0.9645346 1.0661702 0.23203945
000180 f7 35 81 bf 27 d4 8d bf da 06 b8 bf 86 14 b7 3d
       -1.0094594 -1.1080369 -1.4377091 0.089394614
000190 2c c1 7f 3f 03 11 aa 3f 99 ae ac bf 59 54 6b bf
       0.9990413 1.3286442 -1.3490783 -0.9192558
0001a0 d6 57 05 bf 0b d3 1a be d5 3c 94 bf bf 0c bf bf
       -0.5208715 -0.15119569 -1.1581064 -1.4925765
0001b0 66 20 f4 be 02 3a d0 be 2c 8b 87 3f 7d f4 18 bf
       -0.47680968 -0.40669256 1.0589347 -0.5974806
0001c0 66 21 df 3e bd 54 3a be c5 fd 46 40 47 30 b0 3f
       0.43580168 -0.18196388 3.1092389 1.3764733
0001d0 87 f4 d8 3e 42 6a 96 3f 8a 65 92 bf f4 b3 6a be
       0.4237406 1.1751177 -1.1437237 -0.22920209
0001e0 a7 64 58 3f b3 a4 31 3f a4 63 8b 3f df 8e de be
       0.84528583 0.69391936 1.0889783 -0.43468377
0001f0 ee 27 97 bd 92 fa 50 be 1d 87 b4 3f a2 02 24 40
       -0.07380663 -0.20408085 1.4103733 2.5626607
000200 f6 be d5 be 7d bc 01 c0 07 03 21 bf 91 a7 56 be
       -0.41747254 -2.0271294 -0.62895244 -0.20962359
000210 21 48 2a bf 3e 7b 23 3f 64 32 f1 3e c8 84 0b bf
       -0.6651631 0.6385993 0.47108757 -0.54499483
000220 22 41 3b be 61 5a cf 3e 08 d6 a3 bc 1f 50 ac bf
       -0.18286565 0.4049864 -0.019999519 -1.3461951
000230 ff 80 81 3f 65 b2 b5 be 3e 40 ca be 69 5c f4 bf
       1.0117491 -0.35487667 -0.39502138 -1.9090701
000240 c4 32 7b be 6a a4 b1 3f 3e 0c 83 3e 37 97 d0 3f
       -0.24531084 1.38783 0.25595278 1.6296147
000250 2c e9 02 3f a3 e7 37 be e0 42 d3 3e 26 a7 26 3e
       0.5113704 -0.17959456 0.4126196 0.162747
000260 3b b4 e9 3e 21 53 56 bf 5b 92 f5 3b c4 28 38 3f
       0.45645317 -0.83720595 0.0074942536 0.71937203
000270 60 4a 0a bf b6 e4 cb 3e a4 a2 68 c0 0c 59 1f bf
       -0.5401974 0.3982293 -3.6349268 -0.6224525
000280 6d 87 c0 bc 76 ee d8 3e c4 42 3b bf 57 fa a7 be
       -0.023502076 0.4236943 -0.7314875 -0.32808182
000290 e0 46 92 bf c6 8e 2e 3f 5d ed 26 be d0 61 97 be
       -1.1427879 0.68186605 -0.16301484 -0.29566813
0002a0 33 8c 2f bf 71 a6 b4 be 05 57 66 be 05 da 96 be
       -0.685733 -0.35283235 -0.22494133 -0.2946321
0002b0 b0 21 89 3f 0b 26 a2 bf 26 61 37 3f 2b 20 bb bf
       1.0713406 -1.266786 0.7163261 -1.4619192
0002c0 29 28 19 3c d6 6c b8 3e 52 b8 35 3e a6 b4 9a 3f
       0.009347954 0.36020535 0.17746094 1.208638
0002d0 fe 69 96 3f ab ed d8 3e 22 cb 98 3f 7d 9e b8 bd
       1.1751096 0.42368826 1.1936991 -0.09014604
0002e0 df d5 42 3f 7f 59 1a 3f c0 6f 16 bd f4 71 d8 be
       0.7610759 0.6029281 -0.036727667 -0.4227444
0002f0 72 25 34 c0 e3 c1 6c 3f 9c 87 1e be af 7b b3 bf
       -2.8147855 0.9248335 -0.15481418 -1.402212
000300 5f b3 d8 3e 5e 3e 15 bd b9 c2 c8 bf 15 47 cd be
       0.4232435 -0.03643643 -1.5684425 -0.40093294
000310 47 38 f8 3d 6d d3 97 3f 4e f3 a1 3d 4f 8f 84 3f
       0.12120109 1.1861397 0.07907735 1.0356234
000320 fb 93 32 3f 01 0d 18 3f 6e 2b c1 bf 4d 33 18 3f
       0.6975705 0.5939484 -1.5091379 0.5945328
000330 e5 c4 08 3f 97 0a 8b 3f 6d 81 f7 3e 77 b2 c4 bd
       0.5342544 1.0862607 0.48340932 -0.09604352
000340 95 cc a5 3f b9 11 a7 3f 1e 30 98 be ba d7 fa be
       1.2953058 1.3052284 -0.2972421 -0.4899271
000350 17 77 09 c0 90 16 1a 3f d3 b8 41 3e 56 d6 db 3e
       -2.1478937 0.6019068 0.18918161 0.42936963
000360 7d 03 c8 3e 42 a1 29 be e2 39 80 be 24 c5 06 bf
       0.3906516 -0.16565421 -0.2504416 -0.5264456
000370 e4 2e 7f bf 61 cf 18 bf b1 7a d7 3d b7 92 47 bf
       -0.99680924 -0.59691435 0.105214484 -0.77958244
000380 0c 16 e8 be b6 03 b5 3e 1a 87 18 3f c1 81 f6 be
       -0.4532932 0.35354394 0.5958115 -0.4814587
000390 40 92 21 40 9b 98 04 bf 83 aa f5 be 28 0c 2b bf
       2.5245514 -0.5179536 -0.47981653 -0.66815424
0003a0 84 6b 75 bf 4c 55 32 be 88 02 8a bf 6e 77 ae 3d
       -0.9586718 -0.1741535 -1.0782022 0.08518873
0003b0 1f 2f 1a c0 41 5a 25 3f 8f 2d 30 3d f4 73 41 3f
       -2.409126 0.6459084 0.043012198 0.75567555
0003c0 46 ac 56 be 2c 9f 2d 3f 5e 59 00 3f c9 2a b8 3f
       -0.20964155 0.67821 0.50136364 1.4388057
0003d0 63 87 7e bf 9f 28 c2 3e 65 c7 32 be 40 3b 7a bf
       -0.99425334 0.37921616 -0.17458875 -0.9774666
0003e0 2d d8 ca 3f 3f 25 c5 3d 84 ae 90 3e fc 9a 3c bf
       1.5847222 0.09626245 0.28258145 -0.7367399
0003f0 db ff d1 3d 8f 36 b1 3e 5b 8a de 3f 1b 4a 7a bf
       0.10253879 0.34611937 1.7385973 -0.97769326

encoder.layers.0.self_attention.query.weight f4 [4, 4]
000000 94 b7 06 3f 9a 82 04 3e 2a 5e fc bb 1e 94 08 3d
       0.5262387 0.12940446 -0.007701655 0.03334438
000010 24 a7 2a be 45 e8 3c be 23 08 94 be 3a 48 c2 3e
       -0.16665322 -0.18447979 -0.28912458 0.3794573
000020 e0 fe f2 3d 30 85 8e be 84 f5 ac be f9 9b 65 bd
       0.1186502 -0.2783599 -0.33781064 -0.05605695
000030 31 6a 5a be 95 c8 f9 3e 53 31 f4 be d1 ee 10 3e
       -0.21329571 0.48785844 -0.4769388 0.14153601

encoder.layers.0.self_attention.query.bias f4 [4]
000000 db a2 5f bc eb c7 b8 bc c0 ae 12 3d 39 d6 9f be
       -0.013649668 -0.022556266 0.035811186 -0.31218126

encoder.layers.0.self_attention.key.weight f4 [4, 4]
000000 32 19 28 be 7f 4b b0 be d1 3b 78 be 35 5d 68 3e
       -0.16415861 -0.344326 -0.24241568 0.22691806
000010 3f 33 1b bd bd 51 74 be d4 6c b8 be c9 f7 d3 bd
       -0.03789067 -0.23859306 -0.3602053 -0.10349996
000020 38 b3 85 be 9d 0e a3 be 46 63 3f 3e c0 2b 97 be
       -0.26113296 -0.31847087 0.18690214 -0.29525566
000030 51 d9 db 3d cb 4a 0e 3f c7 9b 1b 3e 08 6e a1 be
       0.10734809 0.55582875 0.15196143 -0.3152926

encoder.layers.0.self_attention.key.bias f4 [4]
000000 a0 c1 ba 3e 57 93 ca 3d 5f 09 98 be 23 58 af be
       0.3647585 0.09891384 -0.2969465 -0.3424693

encoder.layers.0.self_attention.value.weight f4 [4, 4]
000000 f1 d8 57 bb 3b 81 3a 3d c7 32 66 be 3b da e8 be
       -0.0032935704 0.0455334 -0.22480308 -0.45478997
000010 f5 3d 10 3f d1 72 5c 3e 09 71 8c bd 0f 3f bd be
       0.5634454 0.21528174 -0.06857497 -0.36962172
000020 93 31 95 3e 45 ca 8e be ed cb e9 3c a5 a3 93 be
       0.29139385 -0.27888694 0.028539622 -0.28835788
000030 43 80 b2 be 56 ca 18 3f 82 70 b7 3e d7 85 c4 3c
       -0.3486348 0.5968374 0.35828024 0.023989601

encoder.layers.0.self_attention.value.bias f4 [4]
000000 54 59 31 be ca 0c b7 be f5 9d 80 bd 5e 6e 9f be
       -0.17319232 -0.35751945 -0.06280128 -0.3113889

encoder.layers.0.fc.0.weight f4 [128, 4]
000000 3b 6a 68 be 88 8a 46 be 60 c0 20 3e e7 f5 d5 3e
       -0.22696774 -0.19388783 0.15698385 0.4178917
000010 af db b5 3e 58 da 01 be 38 53 2e 3e 57 1e 93 be
       0.35519168 -0.12680948 0.17023933 -0.28734085
000020 ac 17 9f be 37 01 13 bd 6b 74 19 be 99 29 ee 3b
       -0.31072748 -0.03588983 -0.14985816 0.0072681424
000030 d2 60 59 3e be 8b f1 bd 5d 13 28 3e 85 fc 5c 3e
       0.2122834 -0.11794232 0.16413637 0.21580704
000040 88 83 ec be c3 d5 bf 3e 96 82 b3 3e 6b df c5 be
       -0.461941 0.37467775 0.35060567 -0.38647017
000050 27 a3 2a 3e af 9f a6 be d2 0d cb be 40 72 bc be
       0.166638 -0.32543704 -0.39658982 -0.36805916
000060 c9 c1 20 3e 7e c7 bc bd 4b a0 9b 3e f7 ee bb be
       0.15698923 -0.092177376 0.3039573 -0.36705753
000070 fb 69 82 3e 55 cc c2 bd 81 2e d5 be e7 17 b3 3d
       0.25471482 -0.095116295 -0.41637042 0.087447934
000080 9b f5 a4 3e ae 52 be bd 1d 2f ab be a1 76 ab 3e
       0.32218632 -0.09293114 -0.33434382 0.33488944
000090 c7 9f c6 3b ff 80 82 3e 9a 6e d7 3e f1 8f 8f bd
       0.0060615274 0.2548904 0.4207657 -0.070098765
0000a0 33 dd 04 3e f3 52 00 3e 6e 5f dc be af 65 70 3e
       0.12975006 0.12531643 -0.43041557 0.23476289
0000b0 c8 64 70 bc dd 40 00 3f e5 3d b1 be 0f a9 97 3e
       -0.014672466 0.50098974 -0.34617534 0.2962117
0000c0 d2 78 ed bd eb 86 85 be 75 73 90 3e 1f 34 8b be
       -0.1159531 -0.26079497 0.28213087 -0.27188203
0000d0 03 7f aa be 7f ae dc ba 86 e8 bb be 3c e8 d1 be
       -0.33300027 -0.0016836672 -0.3670084 -0.40997493
0000e0 09 de 0d 3d 52 8b 27 bc cf 04 9f bd b5 15 cb 3e
       0.034635577 -0.010226088 -0.07764589 0.39665
0000f0 cb 00 89 be 88 d3 ce 3e 23 c0 1b 3e d5 ca 1c 3e
       -0.26758417 0.4039576 0.15210013 0.1531175
000100 fc 16 1c bc 29 8a 8e 3e 5a fb f1 bd 08 26 f9 bd
       -0.009526964 0.27839783 -0.1181552 -0.12165457
000110 46 48 e0 be 78 d5 5f 3e ee 77 02 bf 43 42 c3 3e
       -0.4380514 0.21858776 -0.5096425 0.3813649
000120 1f 79 79 be 8d ed 51 3e 74 44 f0 3d 9a 69 b8 3e
       -0.2436261 0.20500775 0.117318064 0.36018068
000130 8b f6 13 3e da b6 82 3d 22 c8 ae 3e b6 2d c1 3d
       0.14449517 0.063825324 0.34137064 0.09432547
000140 df c0 cf bc 1f 94 33 bd 70 97 af 3e 3e 9b aa 3e
       -0.025360523 -0.04384243 0.34295225 0.33321565
000150 2e ae b1 3e 97 ac da bd bc 5e 95 bd 0e 09 4d be
       0.347032 -0.1067745 -0.0729346 -0.20022985
000160 cf 2b 8b 3e dd 0d 8f 3e 15 22 a7 3c 65 99 51 be
       0.2718186 0.27940264 0.020401994 -0.20468672
000170 5c 87 99 bd 07 51 20 be 64 3e b2 3e 87 26 3a be
       -0.07496521 -0.1565591 0.34813225 -0.1817876
000180 e4 47 92 3d 31 d8 9a be 9a 9a 9c 3d a7 aa 6b 3e
       0.07142618 -0.30243066 0.076466754 0.23014317
000190 a8 01 b6 bc 6e 0c cb be 05 30 29 3e ea e0 12 be
       -0.022217587 -0.3965792 0.16522224 -0.1434361
0001a0 e4 b0 b1 bd f0 c7 e7 3e a5 25 6f be 09 ac de be
       -0.08676317 0.45269728 -0.23354204 -0.43490627
0001b0 53 1c e9 3e ab 4a 95 3d 16 e5 6d bb da 78 cb 3e
       0.45529422 0.072896324 -0.0036299876 0.3974064
0001c0 7e 48 a8 be 5a 11 a4 be ea dd e9 3e fb 0d f8 be
       -0.32867807 -0.32044488 0.4567712 -0.48448166
0001d0 ae a9 7d be da 5b 78 3e 14 a8 9e 3d 62 d4 1d 3e
       -0.24771759 0.24253789 0.07746902 0.15413049
0001e0 27 5d dc 3e d3 cb 56 3e 38 24 ee be a9 7a ea 3d
       0.4303982 0.2097619 -0.46512008 0.11449177
0001f0 94 c3 6e be ce 80 f2 be 8c c8 6d be 83 f9 8c 3d
       -0.23316795 -0.47363895 -0.23221034 0.06883528
000200 09 cf 53 3e bb 6b 85 3e 75 3e d2 be 73 05 8c be
       0.20684446 0.26058754 -0.41063276 -0.27347907
000210 77 cb 0f 3a e7 31 e7 3d fe 7e b0 bd 92 c0 95 be
       0.0005485336 0.11288815 -0.08617972 -0.29248482
000220 53 02 13 bc 87 28 c6 3e 11 79 db be 0a 7f da be
       -0.008972722 0.38702795 -0.42865804 -0.42675048
000230 4e 85 b2 be 85 a2 6f be d9 25 0b bf f6 59 e3 bd
       -0.34867328 -0.2340184 -0.54354626 -0.11101143
000240 9a e1 bc 3e 33 25 f3 3e 61 8b 0d 3e ac 4c 0b be
       0.3689087 0.47489318 0.138227 -0.13603467
000250 2a 3c 46 3e 0f 6f 4c bd fa 33 0b 3f ac 52 5f be
       0.19358888 -0.0499106 0.54376185 -0.2180888
000260 d0 a4 d2 bd 1d 74 d8 3e bc 1f ce be ae f7 84 3e
       -0.10285342 0.42276087 -0.40258586 0.25970215
000270 a4 94 6a 3e 14 f0 da 3c d7 74 f0 bd 0c 78 d2 be
       0.22908264 0.026725806 -0.117410354 -0.41107213
000280 f1 2f b7 3e 25 48 ff 3d 1b b8 98 3e 55 87 15 3c
       0.35778764 0.12464932 0.2982796 0.009126504
000290 be 94 8d 3e e2 06 4e 3e bf 64 c8 3e d7 9a 6e 3e
       0.27652544 0.20119813 0.39139363 0.23301254
0002a0 f5 27 87 3e 65 d5 fb 3c df 49 73 3e 8f bf 40 be
       0.26397672 0.030741403 0.23758648 -0.18823074
0002b0 2e 26 8d bd 9b b4 a1 3d ae 60 90 bd 23 09 01 3e
       -0.06892048 0.07895776 -0.0704969 0.12601142
0002c0 e1 87 3e be eb 01 41 3d 0e 05 f3 be 1e ff 38 be
       -0.18606521 0.04712097 -0.47464794 -0.1806607
0002d0 43 2f 36 be bb 88 86 be ce 5d 26 be 9b 61 e6 3e
       -0.17791466 -0.26276192 -0.16246721 0.44996342
0002e0 dd 7f cd 3e e7 64 bc 3c 25 31 c5 be ce 95 67 be
       0.40136614 0.022997333 -0.38514057 -0.2261574
0002f0 f0 2e ca 3d 4b 3a 80 3e c0 f5 cd 3e 6e 3b e2 be
       0.09872234 0.25044474 0.40226555 -0.44185966
000300 1f 5d 41 3e 70 1b 95 bd 56 bb ea bd df bd ed be
       0.18883179 -0.07280624 -0.11461513 -0.46433923
000310 16 c5 a4 be 72 37 c3 be 4b d6 ac 3d 47 ea 09 bf
       -0.32181615 -0.3812824 0.08439311 -0.53873104
000320 9d 29 21 3e 85 24 a6 bd e8 13 fd bd 8a d4 55 bd
       0.1573853 -0.08112434 -0.123573124 -0.052204646
000330 b4 14 e5 bd 27 e7 bf 3d 08 6b 82 3e 29 23 a4 3e
       -0.111855894 0.09370261 0.25472283 0.32058075
000340 6b 3a fd 3d 59 3c d2 3e 05 52 d2 be 77 a7 3d 3e
       0.12364658 0.41061667 -0.410782 0.18520914
000350 65 fd e1 3e 48 b2 40 3e 2a cc 75 bd f4 b4 b9 be
       0.44138637 0.18818009 -0.06000916 -0.3627087
000360 d0 08 d4 3e fa 37 91 3e 89 20 ab bd 45 7e c9 be
       0.41412973 0.2836302 -0.08355815 -0.39354149
000370 2a cf 70 3e c9 7a b6 3e 4f 33 94 3e 4e 82 77 be
       0.23516527 0.35640553 0.28945395 -0.24170801
000380 1d 2a a4 3e 2c d0 c4 3e 1d fe 29 3e 73 c0 84 be
       0.3206338 0.38440073 0.16600843 -0.25928077
000390 69 d9 d8 3e 5e 87 ca 3d 29 55 97 be 2f b6 57 3d
       0.4235337 0.098891005 -0.2955716 0.05266398
0003a0 e1 55 33 3d 70 ab 07 be c2 e1 6b bd 2b 2f 20 3e
       0.043783072 -0.13248992 -0.057588346 0.15642993
0003b0 5c 93 8c 3e c8 17 90 bd 9e 08 78 3e 59 aa 0b be
       0.27456176 -0.07035786 0.24222037 -0.13639201
0003c0 51 70 40 3e eb 94 42 3e 77 a5 b9 be 9a 10 2a be
       0.18792845 0.1900212 -0.36259052 -0.16607895
0003d0 39 39 75 be 5c fe 01 3e 45 6f 4d be 66 12 7d be
       -0.2394761 0.12694687 -0.20061977 -0.2471405
0003e0 6e 0f 7d be 92 8b 3c 3d a2 1c b9 be 50 7a ca 3e
       -0.24712917 0.046031542 -0.36154658 0.39546442
0003f0 9e 7d c4 3e d3 80 db bd 43 22 c7 3d d0 30 17 be
       0.38377088 -0.10717931 0.09723332 -0.14764714

encoder.layers.0.fc.0.bias f4 [128]
000000 c4 47 c5 be 50 24 d3 be 6a d9 b0 be ee 13 42 bd
       -0.38531315 -0.41238642 -0.34540874 -0.047382288
000010 1b a1 d5 be 43 8d f8 be b2 14 24 3d a8 c9 6a 3d
       -0.41724476 -0.48545274 0.0400588 0.05732122
000020 3a a8 be be 6c 0b d0 3e 17 7a 90 be d5 a9 ec bd
       -0.37237722 0.40633714 -0.28218147 -0.115558304
000030 43 85 0e 3e 36 74 e0 be 11 ef b6 be fd 2c 80 3e
       0.13918023 -0.43838662 -0.35729268 0.25034323
000040 97 bb e5 3e f9 92 f2 be 58 8b 6d 3e 0c 2c ec be
       0.44869682 -0.47377756 0.23197687 -0.46127355
000050 f7 f2 b5 be 9c 8f 3f bd 8b e4 e8 be 52 61 90 3c
       -0.3553693 -0.046767816 -0.45486864 0.017624531
000060 8a fb fb be dc 62 e2 be 7c 35 59 3e 9e 47 8d be
       -0.49215347 -0.4421605 0.21211809 -0.27593702
000070 77 e2 db be ea 96 ad bd e9 2e d4 3e 72 42 78 3c
       -0.42946216 -0.0847605 0.4144204 0.015152561
000080 51 46 01 3e 3e e6 70 be ea d4 69 be b3 a6 79 3e
       0.1262448 -0.2352533 -0.22835127 0.24379997
000090 bc e7 6e be 96 17 9f be 6e b1 14 be 2f d2 e1 be
       -0.23330587 -0.31072682 -0.14520809 -0.4410567
0000a0 bd 74 fb 3e 72 d8 ba 3e 4b 2f df 3e f2 91 eb be
       0.49112502 0.3649326 0.4359077 -0.46009785
0000b0 00 a8 db be 95 dd 80 3d 6a 89 a1 3e 2b 31 47 3e
       -0.4290161 0.062922634 0.3155015 0.1945235
0000c0 11 4f e4 bd 9a cd 90 be 34 49 dd be a0 bb 07 3e
       -0.11147893 -0.28281862 -0.43219912 0.13255167
0000d0 3d 80 80 be 4e 5a 8a 3e 37 1a 35 be 18 17 99 3d
       -0.25097838 0.27022022 -0.17685781 0.07475108
0000e0 dd 33 67 be ee 3f 98 3e ee d3 26 be fa b8 a2 be
       -0.22578378 0.29736274 -0.16291782 -0.3178175
0000f0 66 48 02 bf bb 26 f9 be 6f 6b 78 3e a8 91 57 3d
       -0.5089172 -0.48662362 0.24259733 0.052629143
000100 5e ce 41 3e 29 0d 05 bf 94 69 5d be 3d 03 9b be
       0.18926379 -0.51973206 -0.21622306 -0.30275908
000110 14 63 6d 3e b8 6a bd 3e f7 f0 c2 be b7 01 9b 3d
       0.23182327 0.36995482 -0.38074467 0.075686865
000120 f7 f9 3e be 38 47 b3 be e9 97 e3 be 92 7e 1a 3e
       -0.18650042 -0.35015273 -0.44451836 0.15087345
000130 d8 2e e6 bd 45 19 e9 3e a7 94 cb 3e f7 52 e5 be
       -0.112394035 0.45527092 0.3976185 -0.4478986
000140 8a 77 cc be c3 64 c1 be 6f bc 1d be 89 1e 01 3e
       -0.3993495 -0.37772188 -0.15403913 0.12609304
000150 85 26 80 be 02 96 e5 be 2c 95 09 be dd 98 36 be
       -0.25029388 -0.4484101 -0.13435811 -0.1783175
000160 5f c9 2e be e6 7c e8 3d 27 80 c5 be f2 ab 69 be
       -0.17069004 0.113519475 -0.38574335 -0.22819498
000170 9f 34 1f 3e 99 bc 72 bd 89 b4 9f 3d aa df a8 be
       0.15547417 -0.059261892 0.07798106 -0.32983142
000180 79 82 4f 3d cc 60 ae be e6 b0 5a bd ad 44 b2 3e
       0.050661538 -0.34058225 -0.05339136 0.3481802
000190 11 47 94 be 42 52 bc be b5 8b 66 be 04 0a 41 be
       -0.2896047 -0.36781508 -0.22514232 -0.18851477
0001a0 23 92 73 be 4e 5b 98 3e 5b fd 93 be 42 ef cb 3e
       -0.23786215 0.2975716 -0.28904232 0.39830977
0001b0 28 6a 89 be a4 c5 64 3c 15 86 fb 3d 40 ef b6 3e
       -0.26838803 0.013963137 0.122814335 0.35729408
0001c0 fc c5 af bd ab cc 20 be 70 6b 5a be 94 9d fc 3d
       -0.085826844 -0.15703075 -0.21330047 0.12334743
0001d0 6a 88 87 3e 78 39 3d 3e 3a 3c 27 3e df ff c6 3d
       0.26471263 0.18478954 0.16331568 0.09716772
0001e0 be ca 84 be f3 a0 bd 3e a7 9e a0 3e 5a fd de be
       -0.2593593 0.37036857 0.31371042 -0.43552667
0001f0 c0 ec c1 be 9b c4 41 be 63 7f 9c be ea f6 06 be
       -0.37875938 -0.18922655 -0.30565938 -0.13180128

encoder.layers.0.fc.2.weight f4 [4, 128]
000000 11 3c 63 3c b2 d4 54 3c 1f 2c 4c 3d 27 cc 1a 3d
       0.013869301 0.012990164 0.049846765 0.03779235
000010 a9 2e c1 bb b1 6a 3f bd fe e9 8b 3d 56 d9 98 39
       -0.005895455 -0.04673261 0.0683174 0.00029153627
000020 07 63 91 3c bb 90 8b bd 81 97 26 bc 40 e6 30 bb
       0.017747415 -0.068147145 -0.010167957 -0.0026992708
000030 6b c8 84 3d e5 53 37 3c 61 39 c2 3d a9 f1 58 bd
       0.06483539 0.011189436 0.094836004 -0.05296484
000040 ae 2b 13 bd 46 f7 ee 3c 4c e4 a3 3c 2a 37 96 bd
       -0.035930328 0.029170644 0.020006321 -0.073347405
000050 de 8c af bd 0a d9 9f 3d 07 7d 38 3d 65 d5 3d 3d
       -0.0857179 0.07805069 0.04504111 0.046346087
000060 7e db 22 3c 6c 63 c1 3d f8 d1 9a 3d 43 b3 f3 3b
       0.009940026 0.09442791 0.075595796 0.007437141
000070 fe 5e 02 3c fc ed 9b bb 56 e2 53 3c 84 30 50 3d
       0.007957218 -0.0047585946 0.012932381 0.050827518
000080 52 57 47 3d 92 10 3b bc f5 52 ca 3c 27 ea 96 3d
       0.04866726 -0.011417525 0.02469776 0.0736888
000090 c4 31 03 3c 50 89 bf bc ad 98 6f 3d 1e 43 69 3d
       0.0080074705 -0.023380905 0.058495212 0.056948774
0000a0 cf 77 1f bd 92 03 30 3c ae a2 c7 3d ef d0 98 bd
       -0.038932618 0.010743039 0.097478256 -0.07461726
0000b0 ea bb 0c bd ed 89 8f 3d 83 3c 63 bd 16 9c ac 3d
       -0.034358896 0.07008729 -0.05547763 0.084282085
0000c0 63 2c 66 3d 8a 2b b7 3d 56 64 73 3d ac c3 9c bd
       0.056194674 0.08943851 0.05942186 -0.07654509
0000d0 b2 1c 98 bd d4 63 ab 3d 07 5f 88 3d d7 05 c9 3d
       -0.07427348 0.0836865 0.0665875 0.09815567
0000e0 81 b1 35 3c 77 3b 83 3b e9 d9 f9 3d 89 08 a0 bc
       0.0110896835 0.0040048915 0.12199766 -0.01953532
0000f0 57 14 bf bd 3f dc 04 3d 95 f5 99 bd b9 6f 32 bd
       -0.093300514 0.032436606 -0.07517544 -0.04356358
000100 e9 15 dc bc bf 0b a3 bc ff a4 cd 3c 36 1f a5 3c
       -0.026865916 -0.019903062 0.02510309 0.020156484
000110 4e e0 95 bd cd d9 8b bd 7e 78 d8 3d 3b 5a 0a bd
       -0.07318173 -0.068286516 0.10569857 -0.033777457
000120 3b 17 95 bd 4f 38 72 3d 16 ee 8e bd 58 1e 83 3d
       -0.072798215 0.05913573 -0.06979005 0.06402272
000130 45 48 ff bb 71 cc bb bd 02 fe a1 3d 42 71 54 3d
       -0.0077905976 -0.091698535 0.07909776 0.051865824
000140 f2 48 ca 3d 8b 91 a6 3d fd 06 15 3d 16 f5 1a 3d
       0.098771945 0.08133229 0.036383618 0.03783139
000150 8a 8e c3 3d 8c 27 e7 bd e2 a9 2a bd be 5b 73 3e
       0.095486715 -0.1128684 -0.04166592 0.23765466
000160 aa 5b 77 3d 34 a9 d1 3d 32 93 66 3e f1 e0 f4 3d
       0.060390152 0.10237351 0.22517088 0.11956967
000170 14 e8 71 bb 90 53 f8 bc e4 4e 8c 3d dc c2 cc bb
       -0.003691201 -0.030313283 0.06850985 -0.006248815
000180 ae 78 f7 bc ec f4 7a 3c 3e 98 a6 3c 23 dc 32 3d
       -0.030208912 0.015317183 0.020336267 0.04366697
000190 47 58 3a bd c4 55 44 3d 60 da ad ba b4 fb 29 3d
       -0.045494344 0.047933355 -0.0013263933 0.04149981
0001a0 e5 fe 97 3d e0 f4 c0 3d 2e 04 78 bc 72 75 e9 3a
       0.07421664 0.09421706 -0.015137715 0.0017811491
0001b0 91 a0 98 3d 8e 6e 99 3d 5c f1 89 bd e4 2f 78 3d
       0.074525006 0.0749179 -0.06735489 0.060592547
0001c0 aa 55 b2 3d 91 fe 77 bc 0d 3a 3b 3d 91 a9 8c 3b
       0.087077454 -0.015136377 0.04570966 0.004292675
0001d0 5e 74 b4 3d ab 0e 73 bd 84 7f 79 ba 3e ae 72 bd
       0.08811258 -0.05934016 -0.00095175975 -0.0592482
0001e0 2d 41 c2 bd aa 41 bd 3d bb b1 9a 3d be 60 55 bd
       -0.094850875 0.0924104 0.07553431 -0.052094214
0001f0 65 8c 60 bd a5 69 76 3d 4c ee f4 3c 1c 2b 64 3d
       -0.05482139 0.060159344 0.029898785 0.055705175
000200 73 fb 83 3d bb e0 f6 3d 59 c8 11 bc 15 0b a1 bd
       0.064444445 0.12054583 -0.008897864 -0.07863442
000210 70 8a 80 3c ae 35 a3 bb d1 d0 60 3d 94 b2 d7 3c
       0.015691012 -0.0049807644 0.054886643 0.02633027
000220 e8 5a 59 3d ec 7d a0 bd 43 44 b6 3d 4d 61 da 3d
       0.05306521 -0.07836518 0.08899739 0.1066309
000230 46 b1 8b 3d bc 51 3a 3d cf 59 64 bd 59 8e 9b bd
       0.068209216 0.045488104 -0.05574971 -0.0759551
000240 54 d4 2d 39 e8 c3 89 3d 09 fa 4f 3d 49 26 98 3d
       0.00016577664 0.06726819 0.05077556 0.07429177
000250 e7 1c a7 3c a3 ea 2f 3d dc 66 c3 bc 89 1c 04 3c
       0.020399524 0.042948376 -0.023852758 0.008063444
000260 8d b1 65 bd 9c 85 9a 3d 2f d0 0b 3d d6 9c 7d bd
       -0.05607753 0.07545015 0.034134086 -0.06191715
000270 84 01 8c 3d d9 93 21 3d 2e 90 ea 3c fb 5b a6 bd
       0.068362266 0.03944764 0.028633203 -0.08123013
000280 58 7b b3 bc db 28 35 bd 6b 1b 87 3c de 0a 39 3d
       -0.0219094 -0.044228416 0.016492566 0.04517638
000290 93 31 53 3c 61 1b 4a bc 59 50 f3 3d b0 86 90 3d
       0.012890237 -0.012335629 0.118805595 0.070569396
0002a0 d0 79 61 bd eb 6e ae bc 84 10 37 3c 08 1c 4d bc
       -0.05504781 -0.021293124 0.011173371 -0.01251889
0002b0 4a 0a c9 3d b4 5a b0 ba 86 21 fe 3d 8a b4 4e 3d
       0.098164156 -0.0013454766 0.12408738 0.050465144
0002c0 37 4e 34 3d 3c 84 10 b9 87 96 1d bd b1 28 57 3d
       0.044019904 -0.00013782171 -0.038473632 0.05252904
0002d0 3b 2a f7 3a b4 f7 8a bc 8e 82 0b 3d c0 af 63 3d
       0.001885719 -0.016963817 0.034060054 0.05558753
0002e0 c9 46 dd bc fc fa 9d 3d 3d ee 67 bd 99 1c 6a 3d
       -0.027011292 0.07713887 -0.056623686 0.05715618
0002f0 34 c3 4a 3b 8b 65 4f bd 53 9d ab 39 9a 99 df 3d
       0.0030939104 -0.05063395 0.00032732877 0.10917969
000300 25 a1 61 3d 58 34 16 3d e0 3a 8a 3c 11 c5 49 bd
       0.05508532 0.036671013 0.016873777 -0.049260203
000310 88 d3 1b bd 38 99 cf bd 55 59 ed bd ca 64 80 bd
       -0.03804353 -0.10136646 -0.11589304 -0.06269224
000320 63 4b 81 3d 5e 42 ba 3c b9 1a 9e ba 8e 36 e6 bc
       0.06313207 0.022736724 -0.0012062407 -0.028102186
000330 09 78 09 bc 26 0d 8b bd eb 34 09 3d 4d 2d 43 bc
       -0.008390435 -0.06789617 0.033497732 -0.011912656
000340 d0 27 95 bd 08 a1 97 bd 02 a6 99 3d b5 ed 6c bd
       -0.07282984 -0.07403761 0.075023666 -0.057843883
000350 e2 1b d1 bd f1 af f7 3b 8a fe 21 3d 40 66 24 be
       -0.10210396 0.0075588156 0.039549388 -0.1605463
000360 a1 58 58 3d fd 48 dc 3c 40 d8 98 3d a1 59 17 3d
       0.052818898 0.026890272 0.074631214 0.03695071
000370 12 b6 aa bc 2e b1 2a bd fe 10 06 3d ef 77 de bc
       -0.020838771 -0.041672878 0.03273105 -0.027156798
000380 39 f3 6d 3d f4 4c 20 3e 63 cd c5 bd 3d 14 8b 3d
       0.058093283 0.15654355 -0.09658315 0.067909695
000390 14 53 07 3e a1 30 0b bd 81 6f 40 3b 36 49 8c 3c
       0.13215286 -0.033981923 0.0029363337 0.017124753
0003a0 7b 83 9d 3c e4 cf 46 3d 54 d8 1a 3d 8d 58 b8 3c
       0.019227734 0.048538104 0.037803963 0.022503162
0003b0 d1 e5 8c bd b6 50 19 3c f2 a6 a4 3d 6f ad b5 bd
       -0.068797715 0.009357622 0.08039655 -0.088709705
0003c0 32 46 32 bd 6c 11 45 3d 9e 42 b8 3c 46 94 1c bc
       -0.043523975 0.048112318 0.022492703 -0.0095568355
0003d0 f0 d1 4c bc 57 99 37 3d 62 4f 5e bd 6a a9 a9 3b
       -0.012501225 0.04482397 -0.054274924 0.0051776664
0003e0 42 9f a1 bb 32 98 3d bd 46 d2 e2 3c 6a e3 aa 3d
       -0.004932315 -0.046287723 0.027688157 0.08344157
0003f0 41 d5 d8 bc f3 6a 86 3d fc 31 ff bc eb e1 4c 3b
       -0.026468875 0.06563368 -0.031151764 0.0031262587

encoder.layers.0.fc.2.bias f4 [4]
000000 34 91 86 bd d9 4c 1e 3d a8 5b 62 bd 3c fd 47 3d
       -0.06570664 0.038647506 -0.05526319 0.048825487

encoder.layers.0.norm1.weight f4 [4]
000000 58 f6 70 3f 00 1d 7a 3f c8 89 83 3f 40 bd 71 3f
       0.9412589 0.977005 1.0276423 0.944294

encoder.layers.0.norm1.bias f4 [4]
000000 6c ef a1 3d ec b5 93 bb 84 71 30 bd c8 83 b8 bd
       0.07906994 -0.0045077708 -0.043077007 -0.0900951

encoder.layers.0.norm2.weight f4 [4]
000000 97 5b 86 3f 8c 29 71 3f 5a 07 77 3f ae f6 75 3f
       1.0496701 0.9420402 0.9649559 0.9607953

encoder.layers.0.norm2.bias f4 [4]
000000 4c 96 93 ba 6c aa b3 bc a7 17 2e bd 91 93 01 bc
       -0.0011260002 -0.02193185 -0.042503025 -0.007908718

encoder.layers.1.self_attention.query.weight f4 [4, 4]
000000 f0 33 f2 3e 40 8b 90 3d 17 4f d0 3c 64 a5 a7 3d
       0.4730525 0.0705781 0.025428338 0.08185843
000010 ed 82 56 bc 02 82 7a be 1e 32 c8 be ea 47 ba 3e
       -0.013092739 -0.24463657 -0.39100736 0.3638299
000020 40 9a b7 3d fc e7 b0 be 65 4e c1 be f2 0c ee 3c
       0.08964968 -0.3455199 -0.37755123 0.029058907
000030 2c e3 7d be fc f1 98 3e 1d 48 d4 be e9 60 59 3e
       -0.2479369 0.2987212 -0.41461268 0.21228375

encoder.layers.1.self_attention.query.bias f4 [4]
000000 1b 2a b7 3c f4 be 1a be 18 67 85 3d 62 17 83 be
       0.022358945 -0.15111905 0.06513804 -0.25603777

encoder.layers.1.self_attention.key.weight f4 [4, 4]
000000 cf 17 dc bd f3 07 91 be 44 b9 94 be 36 c4 2a 3e
       -0.10746729 -0.28326377 -0.29047596 0.16676411
000010 b7 b8 8a bd 0d f4 a1 be 4e 5c ae be 5a b4 88 bd
       -0.06773513 -0.31631508 -0.34054798 -0.06675024
000020 0c 1f 90 be b0 43 9a be d7 bb 79 3e 10 aa 9c be
       -0.28148687 -0.30129766 0.24388061 -0.30598497
000030 97 d0 18 3e 6d b7 f5 3e ce c2 c1 3d dd 5d c0 bd
       0.1492332 0.47991505 0.09460984 -0.09392903

encoder.layers.1.self_attention.key.bias f4 [4]
000000 ad c0 ba 3e 18 a7 ca 3d 4e 0b 98 be 8b 53 af be
       0.36475125 0.09895152 -0.29696125 -0.34243426

encoder.layers.1.self_attention.value.weight f4 [4, 4]
000000 05 b1 de 3d d2 60 02 bc 33 47 89 be 4f 55 d7 be
       0.108736075 -0.007957654 -0.26812133 -0.42057273
000010 e9 64 05 3f 53 a8 60 3d b1 e0 06 be b9 e2 4e be
       0.521071 0.054848026 -0.1317165 -0.20203675
000020 f1 86 6b 3e cb c4 7e be 0b 48 2c 3d d0 22 a6 be
       0.23000695 -0.24879758 0.042060893 -0.32448435
000030 04 2d b8 be 8c 41 01 3f 31 f1 ac 3e 52 42 c3 3d
       -0.35971844 0.5049064 0.33777764 0.09534134

encoder.layers.1.self_attention.value.bias f4 [4]
000000 cc 2d 60 be ac d4 00 bf a0 cf e7 bc a6 03 a0 be
       -0.2189247 -0.5032451 -0.028297246 -0.31252784

encoder.layers.1.fc.0.weight f4 [128, 4]
000000 1c b0 81 be 51 16 46 be 0f 6c 16 3e 61 32 ec 3e
       -0.25329673 -0.1934445 0.14689659 0.46132186
000010 8d 54 54 3e ad 76 81 bd a3 f9 4f 3e 54 5c 99 be
       0.20735379 -0.06321464 0.20310073 -0.29953253
000020 71 ed aa be b5 99 34 bd 42 10 e2 bd a1 90 1b 3b
       -0.33384278 -0.0440919 -0.11038257 0.0023737329
000030 2a 3f 1f 3e fd 07 a3 bd cc 07 50 3e 9e 6b 6a 3e
       0.15551439 -0.07960508 0.20315474 0.22892615
000040 93 d8 e4 be 6b 20 db 3e d9 d9 a4 3e 07 c5 da be
       -0.44696483 0.4279817 0.32197455 -0.42728445
000050 fc 05 8e 3e 81 42 d5 be a8 a0 cd be 33 e9 b3 be
       0.2773894 -0.416523 -0.40161633 -0.35138854
000060 ce 24 5a 3e 78 2a 82 bd 97 12 76 3e 89 8d a0 be
       0.21303102 -0.063557565 0.24030529 -0.31357983
000070 d7 46 5e 3e 90 d4 ba bd 39 bd ec be 6a 33 dc 3d
       0.21706711 -0.09122574 -0.46238115 0.10751994
000080 12 b0 a5 3e b6 a9 c9 bd 64 cc bb be a2 07 b5 3e
       0.32360893 -0.09846823 -0.36679375 0.35357386
000090 fd c8 d4 bc e6 9d 77 3e 1d 2b f0 3e 3f 81 fe bc
       -0.025974745 0.24181327 0.46907893 -0.031067489
0000a0 0a c3 b3 3d 2b 95 01 3e 93 3a d8 be 72 22 82 3e
       0.08777435 0.1265456 -0.4223219 0.25416905
0000b0 c1 f9 0d bd a4 ef 01 3f ba 3f ae be 66 64 98 3e
       -0.034662012 0.5075629 -0.34032995 0.29764098
0000c0 b9 c6 c8 bd c4 bf 87 be 6f 34 86 3e 41 54 8c be
       -0.09803528 -0.26513493 0.2621188 -0.2740803
0000d0 e7 6d bb be 24 d8 e9 3b 86 47 c2 be e0 0c d5 be
       -0.36607286 0.0071363617 -0.37945193 -0.41611385
0000e0 db 27 7f 3d a7 79 ec 3d 6e 6a 53 bd 48 0b 99 3e
       0.06229387 0.11546641 -0.05161517 0.2989142
0000f0 ed 30 9e be f2 f7 d4 3e 2c 50 59 3e dd 1b 1d 3e
       -0.30896702 0.41595417 0.2122199 0.1534266
000100 d7 9f ed bb fb 86 8f 3e 1e cf 03 be 50 4d d2 bd
       -0.0072517204 0.2803267 -0.12871978 -0.102686524
000110 26 b6 ed be 03 89 5f 3e 26 5a 09 bf 9a 40 d8 3e
       -0.4642803 0.2182961 -0.5365318 0.42236787
000120 84 5e 7e be e3 d3 5d 3e 6c d8 ca 3d da 8e c4 3e
       -0.24840742 0.2166286 0.099045604 0.38390237
000130 dd c3 13 3e e2 0a 80 3d bc 09 b0 3e 6c fb be 3d
       0.14430185 0.06252076 0.34382427 0.09325299
000140 25 76 a1 3c 05 0d b9 bd 7a 3d 9a 3e 41 53 ab 3e
       0.019709656 -0.090356864 0.30125028 0.33461955
000150 22 94 84 3e 7c 45 c9 bc 0f 87 bd bd dd 87 56 be
       0.25894266 -0.024569266 -0.09254276 -0.20950265
000160 18 16 6b 3e 55 f3 9c 3e 13 86 ae 3c 05 f7 6a be
       0.22957647 0.30654398 0.021304166 -0.22945793
000170 92 a2 dd bd 91 f2 19 be 28 04 b7 3e 62 5f 2b be
       -0.108220235 -0.15033938 0.35745358 -0.16735604
000180 50 9e 3a 3d a9 e4 a0 be 00 ae 00 3e cc 92 6f 3e
       0.045561135 -0.31424454 0.12566376 0.23395842
000190 f8 57 98 3b 63 af ad be ae 5e 2d 3e f5 7e 88 be
       0.0046491586 -0.33922872 0.16930649 -0.2665936
0001a0 0d cd d9 bc 8f 2d e2 3e 2b 34 a6 be af 48 cf be
       -0.026587034 0.44175383 -0.32461676 -0.4048514
0001b0 ea aa f3 3e d6 d4 e9 3d 83 c6 aa bc 9e eb ba 3e
       0.47591335 0.11417548 -0.02084661 0.36507887
0001c0 bf dd 9f be 11 b1 ad be a1 54 e0 3e 75 77 cc be
       -0.31223866 -0.33924153 0.43814567 -0.39934888
0001d0 53 46 72 be 65 4f 5b 3e 75 38 bd 3d ff d2 0d 3e
       -0.23659639 0.21417005 0.09239284 0.1385002
0001e0 68 30 db 3e 21 a9 48 3e 17 f0 fd be 69 97 16 3e
       0.4281037 0.19595768 -0.49597237 0.14706196
0001f0 91 62 7e be 0f 6f f5 be 71 0e 2d be 82 9e 74 3d
       -0.24842288 -0.47936293 -0.1690004 0.059721477
000200 09 d6 ea 3d 02 9f 9b 3e 64 57 cd be ca 4d 84 be
       0.11466605 0.3039475 -0.40105736 -0.25840598
000210 87 3d c6 3c d9 78 a7 3d 82 28 de bd 6c 8f 89 be
       0.02419926 0.08177347 -0.1084757 -0.26867235
000220 56 bb 93 bd 35 56 cc 3e 10 81 d7 be 83 dc cc be
       -0.07213466 0.3990952 -0.42090654 -0.40011987
000230 3f 65 ad be 36 dc 88 be 7c 21 14 bf d1 19 57 bd
       -0.33866307 -0.26730508 -0.57863593 -0.052514855
000240 4b f6 ba 3e f2 20 e0 3e bf 97 02 3e a9 46 dd bd
       0.36516032 0.43775135 0.12753199 -0.10804493
000250 d7 b9 d8 3e f0 5e 83 bc 41 e8 cb 3e eb 42 32 be
       0.42329285 -0.01603648 0.39825633 -0.1740834
000260 0b 35 17 be a2 65 d1 3e 64 ad be be 06 fc 8e 3e
       -0.14766328 0.40897852 -0.37241662 0.27926654
000270 5e c6 eb 3d a3 3c 8a 3d ff b6 cc bd dc 9d db be
       0.11512445 0.06749847 -0.09995841 -0.42893875
000280 59 26 a7 3e 30 d2 01 3e 2f 49 af 3e c4 03 ab bc
       0.32646444 0.12677836 0.34235522 -0.020875819
000290 62 74 7b 3e 70 52 4e 3e 7d a7 d5 3e 85 65 80 3e
       0.24556115 0.20148635 0.41729346 0.25077453
0002a0 28 34 72 3e 87 77 81 3c 5b 0f 69 3e c6 15 19 be
       0.23652709 0.015804065 0.22759764 -0.14949712
0002b0 2e 26 8d bd 9b b4 a1 3d ae 60 90 bd 23 09 01 3e
       -0.06892048 0.07895776 -0.0704969 0.12601142
0002c0 aa 5f 14 be d5 cf 7e 3d 8d 9c 03 bf 6e 81 d2 bd
       -0.14489618 0.062209923 -0.5141075 -0.10278593
0002d0 92 c6 4a be 3d 21 85 be d7 ff 25 be cd cd f1 3e
       -0.19802311 -0.2600192 -0.16210876 0.47227326
0002e0 97 d0 b8 3e a6 bc 3d 3d 04 ee be be 2c b1 74 be
       0.3609664 0.046322487 -0.37290967 -0.2389571
0002f0 c6 34 e1 3d b6 11 a3 3e 85 16 b9 3e c4 a2 e0 be
       0.10996394 0.3184945 0.36149994 -0.4387418
000300 4c 97 0d 3e c0 c1 cc bd ca 40 07 bd d0 33 fc be
       0.13827246 -0.099978924 -0.033020772 -0.4925828
000310 92 e7 8c be 12 30 a6 be 4a ff b3 3c f0 5a 05 bf
       -0.27520424 -0.3245855 0.021972317 -0.52091885
000320 bf 4e 3f 3e 00 ca ba bd 65 1b 3e be 7b 8f b2 bc
       0.18682383 -0.0912056 -0.18565138 -0.021796932
000330 ab 45 e4 bd 5e 52 c6 3d 92 01 6f 3e 43 1c a5 3e
       -0.111461006 0.09683679 0.23340443 0.32248124
000340 dc 71 24 3e 09 28 f0 3e a1 db d4 be 8d 2b 24 3e
       0.16059059 0.46905544 -0.41573814 0.16032238
000350 f2 19 ca 3e b2 6b 43 3e 99 04 25 bd 42 ee b9 be
       0.3947292 0.19084051 -0.040287588 -0.3631459
000360 24 65 c7 3e 28 7d 8d 3e 42 3f 83 bd 54 30 cb be
       0.38944352 0.2763455 -0.0640855 -0.3968531
000370 c4 19 a6 3e ca 39 8c 3e 51 ff 68 3e 30 4a 5f be
       0.32441533 0.2738784 0.22753645 -0.21805644
000380 26 27 c6 3e ed 9d af 3e 7a cb 2f 3e 87 1e 81 be
       0.38701743 0.34300175 0.17167464 -0.25218603
000390 38 ac e1 3e fe 51 ce 3d a4 f9 8d be 0a db 59 3d
       0.44076705 0.100742325 -0.27729523 0.053187408
0003a0 8a f3 c3 3c b7 9f 4d bd dc bd 68 bd 2a b8 cf 3d
       0.02391984 -0.050201144 -0.05682169 0.101425484
0003b0 a6 04 6e 3e 10 57 21 bc 8b a1 a0 3e 00 a2 63 be
       0.2324396 -0.0098474175 0.31373248 -0.22229767
0003c0 b1 cc 6b 3e 54 ed 50 3e d2 ec dc be 87 a7 de bd
       0.23027302 0.20403033 -0.4314943 -0.10871797
0003d0 f4 b1 80 be af 3c 1f 3e a8 c8 66 be a1 39 7b be
       -0.25135767 0.15550493 -0.22537482 -0.24533702
0003e0 66 20 5c be c5 b4 32 3c c5 1e b7 be ae 26 c2 3e
       -0.21496734 0.010907357 -0.35765663 0.37920135
0003f0 ef 84 d7 3e ce 9b 0e be 8a 9c 2b 3d c1 4d fe bd
       0.42093608 -0.13926622 0.041897334 -0.12417174

encoder.layers.1.fc.0.bias f4 [128]
000000 a3 4e bd be 45 73 ca be 89 63 ad be 78 7e 1a bd
       -0.36974058 -0.3954107 -0.33865002 -0.037718266
000010 cd c6 e6 be 14 03 c2 be 10 e4 b0 bb 1c 7a 9a 3d
       -0.45073548 -0.37892973 -0.005398281 0.07542822
000020 fa 54 b3 be 6b 7a d8 3e 8c d2 84 be 98 d6 b3 bd
       -0.3502577 0.42280897 -0.25941885 -0.08781165
000030 00 6b 09 3e cf 1e e4 be c5 b1 e8 be 48 ba 9c 3e
       0.13419724 -0.44554755 -0.45448127 0.3061087
000040 6e c6 e2 3e 23 4a da be b4 24 6d 3e a6 62 eb be
       0.44292015 -0.42634687 0.23158532 -0.459737
000050 c3 72 c2 be 6d 05 44 bd f5 84 d9 be b5 26 22 3d
       -0.3797818 -0.047856737 -0.4248425 0.039587695
000060 ee 66 f3 be 86 1e f6 be 3c a6 10 3e e8 31 9f be
       -0.47539467 -0.48070163 0.14125913 -0.31092763
000070 98 ce dd be 8a f2 96 bd d9 d3 c7 3e 6b 6c 21 3c
       -0.4332168 -0.073704794 0.39028814 0.009852509
000080 fc 9b 1c 3e 00 b6 84 be 9e 32 73 be 57 50 7c 3e
       0.15293878 -0.25920105 -0.23749778 0.24640022
000090 ec b9 88 be 76 c8 dc be b4 1c f8 bd 8f f1 d4 be
       -0.26704347 -0.4312169 -0.1211485 -0.41590545
0000a0 c3 c0 fd 3e 8f 49 c3 3e f6 39 e6 3e f2 91 eb be
       0.49561128 0.38142058 0.44966096 -0.46009785
0000b0 69 a6 c2 be 9f 85 90 3d 87 0b a1 3e 47 1e 36 3e
       -0.38017586 0.07056736 0.31454107 0.17784987
0000c0 35 73 b0 bd e3 22 ae be ff 6f d7 be 7f 83 0a 3e
       -0.08615724 -0.3401099 -0.42077634 0.13526724
0000d0 f3 0f 84 be d5 1f 94 3e d5 41 30 be 61 e1 57 bc
       -0.25793418 0.28930536 -0.17212613 -0.013176293
0000e0 f9 e1 76 be 8d 7b 9e 3e 13 e3 62 be 01 10 7b be
       -0.24109639 0.30953637 -0.22156934 -0.24517824
0000f0 ec 10 ec be e3 6f f0 be 47 39 69 3e ac 60 ed 3b
       -0.4610666 -0.46960363 0.22775756 0.00724419
000100 48 cd 1c 3e c6 65 e7 be 61 af 61 be 20 3b 96 be
       0.15312684 -0.45194834 -0.22039558 -0.29341984
000110 21 f1 7f 3e ab aa bf 3e 7f 42 d7 be ad a7 a3 3c
       0.24994327 0.37434897 -0.4204292 0.019977415
000120 bd 3c 4b be cd 7f c3 be 03 99 07 bf f4 b4 f2 3d
       -0.19847389 -0.38183442 -0.5296785 0.1185092
000130 13 93 12 be 53 38 f9 3e 14 1d bf 3e 48 22 c1 be
       -0.14313917 0.48675784 0.37326872 -0.37721467
000140 92 cc d8 be 08 0e c7 be d9 81 62 be 31 3b 2d 3e
       -0.42343575 -0.38877892 -0.22119845 0.16917111
000150 b4 20 6b be e3 94 f0 be c2 99 ef bd d7 07 37 be
       -0.22961694 -0.46988592 -0.11699249 -0.17874084
000160 51 66 3a be 4a 86 b7 3d 5a 5f c3 be 7e 7f 72 be
       -0.18203093 0.089611605 -0.38158685 -0.23681447
000170 d7 31 41 3e b3 97 5a bd c5 8b 97 3c a6 ca ab be
       0.18866669 -0.053367328 0.018499264 -0.33553046
000180 da 07 06 3d 86 72 c7 be 9d e1 d0 ba df c5 b6 3e
       0.03272233 -0.38954562 -0.0015936379 0.3569784
000190 92 66 9f be 42 52 bc be 8e d8 60 be 5f ac 17 be
       -0.31132942 -0.36781508 -0.21957609 -0.14811848
0001a0 75 68 57 be 60 68 a4 3e 64 d7 33 be f5 dd c9 3e
       -0.21035941 0.32110882 -0.17562634 0.39427152
0001b0 08 ea 8c be a1 73 88 3d d4 12 0f 3e 56 4c b7 3e
       -0.27522302 0.066626795 0.13972026 0.35800427
0001c0 e8 21 9c bd 11 7c 27 be db 3a 44 be 3e ac c4 3d
       -0.076236546 -0.16355921 -0.19163077 0.09603165
0001d0 2f 61 8a 3e c5 50 3e 3e 37 fb 22 3e f8 71 24 3e
       0.2702727 0.18585499 0.15916143 0.160591
0001e0 ca 47 62 be 35 b4 b5 3e 6e bd a9 3e d5 d1 d2 be
       -0.22097698 0.3548905 0.33152336 -0.41175714
0001f0 9a 18 d6 be 55 4b 4c be 6f a7 a3 be af 08 1d be
       -0.41815645 -0.19950612 -0.3196368 -0.15335344

encoder.layers.1.fc.2.weight f4 [4, 128]
000000 fc ff c8 3c 7c c9 f5 3c fa 62 ab 3d 72 fe e9 3c
       0.024536125 0.030003302 0.08368488 0.028563712
000010 18 91 85 bc 90 a2 dd bb 59 00 53 3d c8 e7 0d bd
       -0.016304538 -0.0067637637 0.051514003 -0.034644872
000020 9f 76 08 3a 59 80 92 bd cf 2a 10 3b f9 44 d4 3c
       0.0005205664 -0.071533866 0.0021998172 0.025911795
000030 a0 b3 69 3d c4 d0 7c 3c fe 91 5d 3d 8c 40 47 bd
       0.05705607 0.015430633 0.054094307 -0.04864554
000040 56 04 09 bd 36 ac 7b 3d 4d 89 4d 3c c6 32 96 bd
       -0.0334514 0.06144353 0.012544942 -0.07333903
000050 ea 90 73 bd b9 8f 8e 3d 12 ef 13 3d 3c 6b 26 3d
       -0.059464373 0.06961007 0.036116667 0.04062961
000060 1d 8c da bb d3 5e 07 3e 9e 7f 9c 3d 09 90 a1 bc
       -0.006669535 0.13219766 0.076415285 -0.019722002
000070 57 b4 80 bc b1 54 05 39 90 a0 0e bc ff e7 69 3d
       -0.015710993 0.00012715418 -0.008705273 0.057106014
000080 b8 79 ac 3d 56 8b 96 bc 86 7f 0d 3d 64 41 bf 3d
       0.084216535 -0.018376987 0.034545444 0.09338644
000090 bd 84 a6 3b 28 da 8c bc f4 3f a8 3d 65 3e 54 3d
       0.0050817416 -0.017193869 0.08215323 0.051817317
0000a0 03 e9 5e bd 35 a9 b8 3b ff d9 b5 3d ef d0 98 bd
       -0.054421436 0.0056354054 0.0887947 -0.07461726
0000b0 94 e6 a9 bd 3a fd ad 3d 26 da 84 bd bc ed 9e 3d
       -0.082959324 0.08495565 -0.06486921 0.07760188
0000c0 d7 1a 70 3d 8c d7 9d 3d 3e f8 f1 3d 2d a1 a6 bd
       0.058619346 0.07707128 0.118149266 -0.081362106
0000d0 db 50 c0 bd de 59 b6 3d cf 81 7f 3d df 5c d2 3d
       -0.09390422 0.089038596 0.062379654 0.1027162
0000e0 5c e3 51 3c 24 1c b3 bc 40 9d b1 3d 14 a5 20 3c
       0.012810554 -0.021864004 0.08672571 0.009804983
0000f0 4d be 05 be 4a d1 63 3d 81 6d 0e bd 42 3e 19 bd
       -0.13060875 0.055619515 -0.0347724 -0.03741289
000100 dd 06 0b bd 4a a0 bb 3c d2 98 67 3b d8 55 0f 3c
       -0.033942092 0.02290358 0.003533889 0.008748494
000110 3b fa 9c bd a5 19 7f bd 84 7f 9c 3d 72 8e 09 bd
       -0.07664915 -0.062280316 0.07641509 -0.033583112
000120 67 fc b1 bd 9c f3 82 3d c1 9d 27 bd 32 71 6e 3d
       -0.0869072 0.06394121 -0.04092193 0.05821342
000130 9e a4 fb bc b4 32 b8 bd cf df 94 3d 0a 83 d0 3c
       -0.030718144 -0.08994046 0.072692506 0.02545311
000140 60 29 89 3d 36 b5 9e 3d d9 8a 71 3d 3b 3d 9e 3d
       0.06697345 0.07749407 0.058970306 0.077265225
000150 c8 f2 51 3d fc 91 fc bd a4 ca a2 bc ce 4c 41 3e
       0.051256925 -0.12332532 -0.019872017 0.18876955
000160 5f 4a c7 3c 1f 5b ca 3d b8 f8 88 3e 17 17 b3 3d
       0.024327455 0.09880661 0.26752257 0.087446384
000170 53 c9 4b 3c 40 1d 02 bd 7b 13 61 3d e9 6d 6b bc
       0.012438136 -0.031766176 0.05495022 -0.014369466
000180 e9 66 6f bc c2 05 3f bc 2f f2 5d 3c 44 27 40 3d
       -0.014611938 -0.011659088 0.013546511 0.046912447
000190 c1 d5 ad bb c4 55 44 3d ee df 55 b9 9b c8 4f 3d
       -0.0053050225 0.047933355 -0.00020396683 0.05072842
0001a0 57 cf ef 3d fe 83 ce 3d 93 d2 56 3d 85 1c ad 3a
       0.11709469 0.10083769 0.052446913 0.0013207352
0001b0 0c 8a 86 3d 9b b4 a3 3d 88 18 89 bd c9 db 69 3d
       0.06569299 0.07993432 -0.06694132 0.05709437
0001c0 f0 77 56 3d 79 a3 03 bd f8 94 28 3d 85 31 c4 ba
       0.052360475 -0.03213832 0.041157693 -0.0014968371
0001d0 7b a5 5e 3d f6 d3 5b bd d8 51 3e 3c f7 6c f2 bc
       0.054357033 -0.05366894 0.011616193 -0.029592974
0001e0 af 70 0e be a6 4c b4 3d b8 ef 49 3d 20 95 5b bd
       -0.13910173 0.08803682 0.04930088 -0.053609014
0001f0 b7 0a 40 bd a3 30 97 3c 9a 49 41 3d 89 d5 d6 3c
       -0.04688522 0.018455809 0.047189333 0.026224868
000200 1f a1 66 3d 31 4c 13 3d 73 e9 eb bc be 54 99 bd
       0.056306 0.035961334 -0.02879784 -0.074868664
000210 db 05 db ba f4 dc b1 3d f1 39 78 3d d1 51 8f 3d
       -0.0016710119 0.086847216 0.060602132 0.06998027
000220 58 cc a3 3d cf c9 e7 bd 93 0c c5 3d 22 d5 ec 3d
       0.0799796 -0.11317789 0.09621539 0.11564089
000230 bb db 25 3d 4d 40 93 3d ec 78 a0 3b 00 7b cf bd
       0.040492754 0.07189999 0.0048972275 -0.10130882
000240 75 94 3b bc 7c bf fd 3d 6a 70 58 3d 46 2d 98 3d
       -0.011448969 0.12390038 0.05284158 0.0743051
000250 9a d6 39 bc fe 81 23 bb d6 3d 2a bd 8d 7e f1 bc
       -0.011342669 -0.0024949308 -0.041562878 -0.02947929
000260 2c 91 55 bd 1d c2 be 3d 4b d4 b7 3c 84 99 27 bd
       -0.0521404 0.09314368 0.022440096 -0.04091789
000270 81 e1 80 3d 6d 27 27 3d 78 1f 8e 3d bf a0 92 bd
       0.062930115 0.040809084 0.06939596 -0.07159566
000280 b4 d1 77 bd cb 87 0f bd 8f ed 82 3c f7 3f 97 3d
       -0.060502723 -0.03504161 0.015982417 0.07385247
000290 66 af 48 3c 0f 5a 92 3a 35 69 ef 3d 40 7e 12 3d
       0.0122488495 0.0011165756 0.116899885 0.035764933
0002a0 51 02 92 bd 5d b0 2f bd 4c ae 8b bc 08 1c 4d bc
       -0.07129348 -0.042892803 -0.017050885 -0.01251889
0002b0 d0 2d e0 3d 38 b3 19 3c be 38 40 3d 5d 7a 45 3d
       0.10946238 0.009381108 0.046929114 0.048212398
0002c0 65 2a 16 3d a3 f0 88 3a 31 c9 4a be a0 72 41 3d
       0.036661524 0.0010447692 -0.19803311 0.047228456
0002d0 11 28 63 3c 73 8c 87 bc ad 1f ea 3c 81 fe 67 3d
       0.013864533 -0.016546464 0.028579557 0.0566392
0002e0 c0 fc c6 bc be cc cd 3d 12 42 12 bd 93 21 e4 bc
       -0.024290442 0.10048817 -0.03570754 -0.02784804
0002f0 c1 19 9e bc a1 5c 01 3c 07 64 d3 3c df 72 97 3d
       -0.01929939 0.00789562 0.025804533 0.07394957
000300 dc 6c c5 3d b4 a6 c7 3d ac 13 94 3c 47 5f 64 bd
       0.09639904 0.09748593 0.018075787 -0.055754926
000310 1f fe 84 bd 6a f2 d4 bd e0 7a 35 bd c1 94 86 bd
       -0.06493782 -0.10397799 -0.044306636 -0.06571341
000320 3c 97 83 3d ff 90 7a 3c 0b a7 0b 3d b7 5e 0e bd
       0.0642533 0.015293359 0.03409485 -0.034758296
000330 08 64 5b 3d ab c1 ce bd c3 8e ba 3c d7 a6 d6 bc
       0.053562194 -0.10095533 0.022773152 -0.026202602
000340 96 aa 8f bd 73 ea 9d bd 83 08 a8 3d e4 2b 9c bd
       -0.070149586 -0.07710733 0.082047485 -0.07625559
000350 81 b7 ac bd 7e ba 7e 3a 4b 8b d2 bb 95 83 dd bd
       -0.08433438 0.00097171206 -0.0064252964 -0.10816113
000360 ab ee 14 3e 16 ac ba 3c e5 f1 dd 3d f0 0a 68 3d
       0.1454417 0.022787135 0.10837153 0.056651056
000370 f0 75 3f bd e5 ca 5d bd 1f d0 47 3d f9 7d 84 bc
       -0.046743333 -0.054148573 0.048782464 -0.01617335
000380 df 34 b6 3c 53 da 08 3e 12 a3 d3 bd cd 96 4c 3d
       0.022242008 0.13364534 -0.103338376 0.049948502
000390 26 b1 8e 3d a1 30 0b bd 2a 7f 4a 3c a4 47 c4 3c
       0.06967382 -0.033981923 0.01235942 0.023959942
0003a0 0a 80 b8 3b c1 93 a8 3d 5d 5a ce 3d c9 c8 b8 3c
       0.005630498 0.08231307 0.10075829 0.02255668
0003b0 e5 95 9a bd 1e 5f 8f 3c 86 dc b6 3d 64 5e cf bd
       -0.07548121 0.01750141 0.0892878 -0.101254255
0003c0 66 fc 28 bc dd e5 29 3c 65 15 41 bd 88 1d 73 bc
       -0.010314083 0.010369745 -0.047139544 -0.014838584
0003d0 2c 0c a9 bc e9 07 42 3d eb 50 3d bd cb 20 25 bd
       -0.020635687 0.047370825 -0.046219748 -0.040314477
0003e0 57 00 14 bd 3e 6d 63 bd e1 63 4e 3d 71 76 6d 3d
       -0.036133137 -0.055524103 0.05038822 0.057974283
0003f0 50 e8 02 bd cd aa 0e 3e 11 6e ba 3c 36 11 8a 3d
       -0.03195983 0.13932343 0.022757562 0.06741564

encoder.layers.1.fc.2.bias f4 [4]
000000 46 75 90 bd c4 03 d6 3c 29 5f 91 bd 52 1a 43 3d
       -0.07053618 0.026124842 -0.070982285 0.047632523

encoder.layers.1.norm1.weight f4 [4]
000000 91 f1 76 3f 50 66 72 3f d0 3b 82 3f 4d f6 6f 3f
       0.9646235 0.94687366 1.0174503 0.937352

encoder.layers.1.norm1.bias f4 [4]
000000 88 a2 cc 3d f5 dd c9 bc 33 f1 56 bd 97 00 ec bd
       0.09991938 -0.02464197 -0.05247612 -0.1152355

encoder.layers.1.norm2.weight f4 [4]
000000 9f 61 81 3f 3d fa 6d 3f 77 98 76 3f f7 18 79 3f
       1.0107917 0.9295996 0.9632639 0.9730372

encoder.layers.1.norm2.bias f4 [4]
000000 7d b4 7b bc 6d 8a e6 bc b2 ca 12 bd ca 82 77 3b
       -0.015362856 -0.028142178 -0.035837837 0.0037767165

encoder.layers.2.self_attention.query.weight f4 [4, 4]
000000 1b 97 06 3f 65 94 91 3d a0 2c 34 bd 6f d3 bf 3d
       0.5257432 0.07108382 -0.04398787 0.093665
000010 10 af d6 bc 24 5b c9 be 9e 56 b1 be 24 ad ec 3e
       -0.026206523 -0.39327347 -0.34636396 0.46225846
000020 54 14 f2 3c fa 5b 9f be 2e a3 da be ae 6a f5 3d
       0.029550709 -0.3112486 -0.4270262 0.11983238
000030 dc 86 23 be c3 c6 9f 3e ed b7 ec be 3c 99 e2 3d
       -0.15969414 0.3120633 -0.46234074 0.110643834

encoder.layers.2.self_attention.query.bias f4 [4]
000000 ec a2 be 3b 01 0a eb bd 21 9a a6 3d 70 c4 7d be
       0.0058177616 -0.114765175 0.081348665 -0.24781966

encoder.layers.2.self_attention.key.weight f4 [4, 4]
000000 0f a6 03 be f2 60 a0 be f3 e0 99 be 53 65 63 3e
       -0.12856315 -0.31323963 -0.30054435 0.22206621
000010 c9 ff 85 bd d6 fc ca be 0b 84 bc be 1d 68 61 bd
       -0.06542928 -0.39646024 -0.3681949 -0.05503093
000020 98 e2 81 be 6c f6 c1 be ad 80 a8 3e 43 45 a4 be
       -0.2536819 -0.37883317 0.32910672 -0.32084092
000030 8e 13 48 3e d3 be e0 3e 63 b8 f9 3d fa a3 98 be
       0.1953871 0.43895587 0.12193372 -0.29812604

encoder.layers.2.self_attention.key.bias f4 [4]
000000 f5 c4 ba 3e 84 92 ca 3d ce 04 98 be 51 53 af be
       0.3647839 0.09891227 -0.29691166 -0.34243253

encoder.layers.2.self_attention.value.weight f4 [4, 4]
000000 e8 01 0f 3e 15 7b 21 bc 77 9e 84 be 68 c7 dd be
       0.13965571 -0.009856005 -0.2590215 -0.43316197
000010 c8 d6 04 3f e5 d7 7f 3d 94 f0 01 be f1 98 4f be
       0.5189023 0.062461752 -0.1268943 -0.20273186
000020 5a cf 4d 3e 46 b0 82 be 95 65 a2 3d 0b dd a8 be
       0.2009863 -0.2552511 0.079295315 -0.32981142
000030 bb 80 90 be a0 43 02 3f a9 00 8a 3e 67 66 b7 3d
       -0.28223214 0.5088444 0.2695363 0.089550786

encoder.layers.2.self_attention.value.bias f4 [4]
000000 a2 76 60 be 39 cf 04 bf c4 32 47 bd bf 88 a5 be
       -0.21920255 -0.51878697 -0.0486324 -0.3233089
