model_weights/init/humor/humorHCFTransformer.pt (torch_old, 104688 bytes, 46 tensors)

pos_encoder.weight f4 [5000, 4]
000000 a2 4a 4c bf 51 3e 39 3f c8 e8 59 3f 9c 84 d8 3e
       -0.7980138 0.7236071 0.8512082 0.42288673
000010 b8 51 7d bf 3c 1d ce bd 8a f6 c1 be 4a ac a8 3e
       -0.9895282 -0.1006417 -0.37883407 0.32943946
000020 6e 5b 0d 40 55 72 92 3f 95 a9 c1 bf bc 52 a5 3f
       2.2087054 1.1441141 -1.5129877 1.2915874
000030 29 65 76 bf 95 73 1e 3d b0 04 17 be 62 69 a6 3e
       -0.9624811 0.038684446 -0.14747882 0.32502276
000040 e4 3a ed 3f ce 3a 1d 3f 6a c2 2f 3f fd 58 01 3e
       1.8533597 0.61417854 0.6865603 0.12631603
000050 ac d8 e9 3f c6 2a 19 3f 43 f4 9b 3f e0 af a9 3f
       1.8269248 0.5983089 1.2183918 1.3256798
000060 87 77 47 3e 1b 86 77 bf e9 13 cb 3f 82 69 5e bd
       0.1947919 -0.96689004 1.5865451 -0.05429984
000070 a7 ea 25 3f 0a 30 9b bf 7a 92 11 be fd a2 46 bf
       0.64811176 -1.2124035 -0.14216033 -0.7759245
000080 c0 47 1e 3e 0d 6f cd be 14 12 aa 3e a1 12 1b 3e
       0.15457058 -0.40123788 0.33216918 0.15143825
000090 53 9c ec 3e 28 f3 04 bf 0f d1 5b 3f 75 46 03 3f
       0.46213016 -0.51933527 0.85865873 0.51279384
0000a0 17 37 02 3e d6 f5 c8 3d be f6 a8 3e 6f 09 59 3f
       0.12716328 0.098125145 0.3300075 0.8478002
0000b0 aa c9 92 be 2e b2 55 3f 74 a1 1a bd 31 ed 86 bf
       -0.28669482 0.83475006 -0.03775163 -1.0541135
0000c0 40 ef 80 bf 7f c0 2a 3f c7 56 e2 bf cf ab b8 3e
       -1.0073013 0.66699976 -1.7682732 0.3606858
0000d0 7d 9a 51 3f 0a 9f c1 be 1f f7 e3 3f 0f cc 05 3e
       0.81876355 -0.3781665 1.780979 0.13066123
0000e0 cb 5f 22 3d 74 30 44 bf 72 6b 7a bf ca 3f cc 3c
       0.039642137 -0.76636434 -0.978202 0.02493276
0000f0 d4 6e f3 bf fc ed 9c 3e 7c ee b0 bd 22 04 7e 3f
       -1.9018197 0.30650318 -0.08639237 0.99225056
000100 7c 58 09 40 43 73 e3 bf 14 62 93 bc c5 e7 ef bc
       2.1460257 -1.776955 -0.017991103 -0.029285321
000110 e0 cc 84 3f f5 90 da 3e 78 ba e8 3e 94 2a 9a bf
       1.0375023 0.42688718 0.45454764 -1.2044244
000120 5d b7 a4 bd b8 6a 2e 3d ac bf 0e 3c 2b 47 a5 3e
       -0.08042786 0.042582244 0.00871269 0.3228086
000130 c9 09 59 bf 5e 60 f0 3e 54 e6 0e bf 85 75 5e bf
       -0.84780556 0.46948522 -0.558202 -0.8689807
000140 e3 a0 9c 3f c3 9d c4 be 90 bb 9b 3f ba 28 e9 be
       1.2236599 -0.38401613 1.2166615 -0.45538884
000150 0b f4 4e bf 93 cf 1b 40 bd b7 b5 3f 53 ab c8 3d
       -0.8084113 2.4345443 1.4196697 0.097983025
000160 74 af 06 bf 33 64 32 be 7f cc 34 40 56 73 05 bf
       -0.5261147 -0.17421035 2.8249815 -0.52129114
000170 3f 52 13 3f 22 b3 29 3f 20 73 cc 3e ba f6 51 be
       0.5754737 0.6628896 0.39931583 -0.20504275
000180 eb 9d 93 3f 27 05 da be 2e a5 0c bf cf b2 4a bf
       1.1532568 -0.42582056 -0.54939544 -0.7917909
000190 e8 8b 14 3f a4 5e 47 bf 9a c2 8f 3f 60 95 08 3f
       0.5802598 -0.77878785 1.1231263 0.5335293
0001a0 47 01 97 3e 86 62 cb 3f f1 a8 1d 3f fa 37 82 3e
       0.29493162 1.5889442 0.6158591 0.25433332
0001b0 25 fb fa be 55 bb b4 3e 2a 60 b8 3e 36 f2 e6 3e
       -0.49019733 0.35299173 0.36010867 0.45106667
0001c0 42 55 3d bf f9 f6 bd bf 67 09 21 bf 40 c5 96 3e
       -0.7395822 -1.4840995 -0.6290497 0.29447365
0001d0 2f a7 0d be 05 6b b4 3f cb d9 59 be 00 22 69 be
       -0.13833307 1.409516 -0.21274488 -0.22766876
0001e0 1b aa 01 c0 ea 72 4b bf e8 03 15 bf 1c d4 80 3f
       -2.0260074 -0.7947222 -0.58209085 1.0064731
0001f0 af 3a 6d bf e5 45 e8 3d 6d d3 e5 be de 16 97 3d
       -0.9266767 0.11341456 -0.44887868 0.073774084
000200 74 27 0e 3f fe a5 e4 3f b4 52 23 c0 be d4 94 3d
       0.5552895 1.7863157 -2.5519228 0.0726714
000210 8e 94 de bf 92 4e b7 3e b9 ca a5 be d6 c8 30 bf
       -1.7389085 0.35802132 -0.32381228 -0.6905645
000220 d9 ee cf bf 1b d9 e3 bd 7a bb e2 3d bd 1e b3 3f
       -1.6244766 -0.11125394 0.110709146 1.3993756
000230 1a eb c7 b9 46 9f 71 be 9a f2 b3 3e 5f 81 85 3f
       -0.00038131402 -0.23595914 0.35146028 1.0430106
000240 2d f9 f2 be 91 85 c1 bf 1b a3 8a bf 5b be e8 bb
       -0.4745573 -1.5118886 -1.0831026 -0.0071027703
000250 85 a4 bc bf 18 33 22 3f 8b 3c 92 bd c9 3b 30 3e
       -1.4737707 0.6335921 -0.07140454 0.17210306
000260 c8 9f 0f bf 51 c6 cb 3c c9 cb 56 be 48 27 61 be
       -0.5610318 0.024874838 -0.20976175 -0.21987641
000270 f0 48 8d 3e 86 3f 81 be 9e b3 d6 3d 49 93 17 3f
       0.2759471 -0.25243777 0.10483478 0.59209114
000280 57 3d 72 3d 38 90 8c 3d ad 65 f4 3e 05 b0 a3 3e
       0.05914053 0.06863445 0.47733822 0.3197023
000290 57 fb d0 3f 57 25 3c 3f 04 f2 0f bf 32 ea ab bf
       1.6326703 0.73494476 -0.5622866 -1.3430846
0002a0 07 bc 87 bf 6b 5d 41 bf fb 99 73 bf ff 00 f3 be
       -1.0604256 -0.7553317 -0.9515683 -0.47461697
0002b0 ec 99 cf 3f a1 93 09 3f 68 03 3b bd 5a 5f 19 3f
       1.6218848 0.5374089 -0.045657545 0.5991112
0002c0 a4 3a a2 be ae 2a a2 bd 71 a0 16 be 60 6a 77 3e
       -0.31685364 -0.07918297 -0.14709641 0.24161673
0002d0 eb 89 86 be db 98 47 3e 2c 28 de bd d1 84 06 3e
       -0.26277098 0.19491903 -0.10847506 0.13136603
0002e0 cf 4d 57 bf d4 fd 74 bf 33 07 28 bf b2 6c 70 be
       -0.841031 -0.9569981 -0.65635985 -0.23478964
0002f0 85 6f 46 bf 07 f1 88 bd 18 30 51 bf dc b1 03 bf
       -0.77513915 -0.06686597 -0.8171401 -0.51443267
000300 45 7d a2 be 9d ae 0f be 1e 2b 6f be 11 fb 9e 3e
       -0.31736198 -0.14031453 -0.23356292 0.31050923
000310 62 fa 43 be 90 8e 08 3e 68 b8 53 be 08 e5 10 3e
       -0.19138482 0.13335633 -0.20675814 0.14149868
000320 d1 92 27 bf 27 f8 4e be 16 b5 db be ce aa 3b be
       -0.654584 -0.2021185 -0.42911595 -0.18326876
000330 97 ce d3 bf 72 41 33 bf ef 62 38 bf 87 48 53 bd
       -1.6547421 -0.70021737 -0.7202596 -0.05158284
000340 38 b2 e9 3e ac 58 60 bf 44 c6 d9 3f d8 da e4 bf
       0.45643783 -0.876353 1.7013631 -1.7879286
000350 c1 f5 91 3f d3 dd a3 3e a8 8b 52 bf d8 ab c4 3e
       1.1403123 0.32005176 -0.8224435 0.38412356
000360 dd 62 75 3e 82 11 a9 3f cc a9 71 be 92 2e 28 3f
       0.23963495 1.3208468 -0.23599929 0.6569606
000370 07 dc 47 3f 9c aa fb bf 64 a3 49 3f f8 8e bb be
       0.7807011 -1.9661441 0.7876494 -0.36632514
000380 a3 dd 99 bf c2 98 35 bf bf 4b 3c bf 59 97 cd bf
       -1.2020763 -0.70936215 -0.7355308 -1.6061813
000390 a2 66 17 bf 68 1f f2 be a0 d0 3f 3e 3a bc 3d 3f
       -0.5914098 -0.47289586 0.18731928 0.74115336
0003a0 ee ee 73 3e c7 5c 88 bf 95 00 75 3f 62 01 4c bf
       0.23821613 -1.0653313 0.95704013 -0.7968961
0003b0 31 b8 c1 be e6 84 a6 bf 69 36 c0 be 6c 79 5d 3f
       -0.3783584 -1.3009307 -0.37541512 0.865134
0003c0 b8 cd 50 3f 2d 8c eb bf 6e 66 67 be b5 bf ca bf
       0.815639 -1.8402153 -0.22597668 -1.5839754
0003d0 31 59 d8 bf f5 31 d2 3c a1 fe ef 3e 2d cb 19 bc
       -1.6902219 0.025658587 0.46873954 -0.00938682
0003e0 00 7a ed bf b5 17 88 3f 4c 04 43 3e ad 0f c1 3f
       -1.8552856 1.0632235 0.19044608 1.5082909
0003f0 69 8c 0c bf cf 9f 43 bf 53 85 4a 3f ad 38 99 3f
       -0.5490175 -0.76415724 0.79109687 1.1970421

encoder.layers.0.self_attention.query.weight f4 [4, 4]
000000 66 cc 4d 3e 24 51 5a 3e 9b 2b 8b 3e f0 2c da 3e
       0.20097503 0.21320015 0.27181706 0.4261241
000010 47 99 f5 3e ed 9c 87 3e c4 07 0c bf 7c e2 95 be
       0.47968504 0.26486912 -0.5469935 -0.29274356
000020 84 7e 57 3e c7 f3 19 3e cf 3a 34 3e 34 cf 25 bf
       0.21044356 0.150344 0.17600559 -0.6476929
000030 75 64 5e be d4 b4 a9 be 8c f2 7b bd 02 70 b6 be
       -0.21718009 -0.33145773 -0.061510608 -0.3563233

encoder.layers.0.self_attention.query.bias f4 [4]
000000 81 ae 6e bd 47 24 6a 3e b9 52 68 be 54 17 9e be
       -0.05827189 0.22865401 -0.22687806 -0.30877173

encoder.layers.0.self_attention.key.weight f4 [4, 4]
000000 0a 9c e6 bd 8a 00 87 be 13 cf 19 3e 80 bb 09 3e
       -0.11260231 -0.263676 0.15020399 0.13450432
000010 4a 6e 52 3e 5b fa 2d bd 02 e6 13 be c5 3b 27 3d
       0.20549884 -0.042475086 -0.1444321 0.040828485
000020 59 d6 4e be 41 6a ba be c0 32 0f 3e b1 ef e6 3e
       -0.20198955 -0.3640919 0.13984203 0.45104745
000030 af 2a da 3e 83 46 a5 be 9c 51 89 bd ac 21 40 3e
       0.4261069 -0.3228036 -0.06705019 0.18762845

encoder.layers.0.self_attention.key.bias f4 [4]
000000 a8 b4 ea 3e 98 41 96 3e 77 e0 d7 bc bb 04 93 be
       0.45840955 0.2934692 -0.02635215 -0.28714547

encoder.layers.0.self_attention.value.weight f4 [4, 4]
000000 f6 17 93 be 41 f4 19 3f bf 93 98 bf cf 4c d7 3f
       -0.28729218 0.60138327 -1.1920089 1.6820315
000010 2d 87 4a be 16 16 b2 3e 24 18 52 3f 95 0c b6 3c
       -0.19778128 0.34782475 0.82068086 0.022222796
000020 6c 65 a4 3e 9d 69 6a 3d 35 aa 9f bf dc 44 09 3f
       0.3210863 0.057229627 -1.2473818 0.53620696
000030 5e a4 09 be 59 ca b3 be 34 09 80 3f 1c 99 87 be
       -0.13441607 -0.35115317 1.0002809 -0.26484

encoder.layers.0.self_attention.value.bias f4 [4]
000000 cd 9b 96 bd 0d 7a a5 bc 58 e5 56 bd 92 d2 e9 3d
       -0.073539354 -0.0201998 -0.052464813 0.11417116

encoder.layers.0.fc.0.weight f4 [128, 4]
000000 a1 4d e2 3e 4f 13 ce be 4f c8 83 bd 9f 1a 99 be
       0.4419985 -0.40249106 -0.0643469 -0.29903123
000010 8c d4 11 3f a8 19 3f 3e f4 e0 87 bd fc 44 e1 bd
       0.56964946 0.18662131 -0.06634703 -0.10999486
000020 92 5f 27 3b e5 cf 1b 3d a0 ad 4c 3d 6b 0d 49 be
       0.0025539142 0.03804006 0.04997027 -0.19634025
000030 80 63 82 be a4 27 41 3d 90 e3 61 3e 2f 0a 58 3e
       -0.25466537 0.047156945 0.22059464 0.21097635
000040 44 19 72 be 60 21 2d bd ad 8e c4 bc 69 43 e7 be
       -0.2364245 -0.042268157 -0.023993814 -0.45168617
000050 d1 d0 55 3f c1 12 9d 3e f2 32 49 be 6e d2 74 3c
       0.83521754 0.3067837 -0.1964834 0.0149427485
000060 ed 2e f1 bd 4f 49 43 be a9 b2 2e 3e 49 23 97 3e
       -0.117765285 -0.19070934 0.17060341 0.29519108
000070 2c 51 ca bd 7c 30 c6 bd c8 7a 17 bf 63 34 f9 3e
       -0.098787636 -0.096772164 -0.59171724 0.4867278
000080 f8 43 00 be c9 b2 98 be d1 1c 58 be 18 64 f7 3d
       -0.12525928 -0.29823902 -0.21104743 0.12079638
000090 19 4d fb bd ea 73 ab 3c 7e 7f 7a 3e 5a 87 7b be
       -0.122705646 0.020929296 0.24462697 -0.24563351
0000a0 9a fd 4b 3e 76 ae df be 2a d5 fc bd 72 81 cb be
       0.1992096 -0.4368779 -0.12345345 -0.39747196
0000b0 f3 28 af be 8a 2f ec 3e 25 20 6b be af 53 3a 3e
       -0.3421093 0.4613002 -0.22961481 0.18195985
0000c0 e1 6a 1c 3f 77 66 50 be 1d 81 af be 27 71 53 be
       0.61100584 -0.20351587 -0.34278193 -0.20648633
0000d0 08 2d 65 3d 55 47 b7 3e 5e f6 8a be 54 67 be 3e
       0.05595115 0.3579661 -0.27141088 0.37188208
0000e0 4c 82 2a 3f 3e 35 22 3d 6c 01 bd be 78 e2 ec be
       0.6660507 0.039601557 -0.36915147 -0.46266532
0000f0 26 bc 7f be f6 59 ea be e6 dd 90 3e 2f a5 86 be
       -0.24974117 -0.4577176 0.28294295 -0.262979
000100 44 c3 91 be 28 ae 9a be 34 73 22 3e 12 46 d0 3e
       -0.28469288 -0.30210996 0.15864259 0.4067846
000110 58 86 50 3f 7c e2 47 bd 68 14 8a be 7e fa 19 bc
       0.8145499 -0.048799977 -0.26968694 -0.009398101
000120 c6 aa c7 be c0 72 01 3e fd 6f 74 be f2 85 72 3e
       -0.38997477 0.1264143 -0.23870845 0.23683909
000130 a6 3b 96 3e 5b 83 96 be 1f 95 71 3d f0 c5 85 be
       0.29342383 -0.2939709 0.058980104 -0.26127577
000140 7f 22 4d 3e 95 72 d5 bd 61 a5 a7 3e f6 82 d3 be
       0.2003269 -0.104222454 0.32743362 -0.41310853
000150 27 c2 77 be f5 90 ca 3e 87 26 ac be 02 a2 d0 bd
       -0.24195157 0.39563718 -0.33623144 -0.101871505
000160 bf 63 46 3e 46 5d 94 3e 70 20 d9 3e 00 a2 32 3d
       0.19373988 0.28977412 0.4240756 0.043611526
000170 63 ca 24 3e f1 04 13 bb 65 4e ba bd d0 03 22 3e
       0.1609283 -0.0022433365 -0.09096984 0.15821767
000180 ad 1b 09 3f a6 9f bd bd 14 29 9a be ce bb 5b 3d
       0.53557855 -0.09258966 -0.30109465 0.0536459
000190 60 4c ce bc 6d 26 be 3e ba c4 b8 be 11 9b c9 bd
       -0.025182903 0.37138692 -0.3608759 -0.0984403
0001a0 3a de ae be f9 8b 71 be 2e 61 97 be 6a c8 89 be
       -0.3415392 -0.23588552 -0.2956633 -0.26910716
0001b0 86 e8 1a 3e b0 09 ce 3e 03 43 0b bf 05 20 e1 3e
       0.15127763 0.40241766 -0.54399127 0.4396974
0001c0 28 d6 d1 be 85 b6 fc be 2d cf b2 bd 10 c0 92 3e
       -0.409837 -0.49358 -0.08730922 0.28662157
0001d0 95 05 5d 3b cb 16 80 be 28 e3 91 3e b8 d2 41 be
       0.003372525 -0.2501739 0.2849362 -0.18928039
0001e0 29 48 0a be b3 29 68 be 1d 5a 05 3e b0 8b a4 3e
       -0.1350409 -0.22672157 0.13022657 0.32137823
0001f0 d9 0c 7a 3e 55 eb 82 3e 9c 41 e5 3c 9c a3 c9 3e
       0.24418963 0.2557017 0.027985387 0.39382637
000200 77 b8 19 3e 1d 12 2d be 2c 41 9c 3e c2 3a 45 3e
       0.15011774 -0.16901441 0.30518472 0.19260696
000210 c7 1c ea 3e 1d 3e 8f be 89 93 66 3d a9 26 74 be
       0.4572508 -0.27977076 0.056293044 -0.23842873
000220 41 2e 51 bd ca fa a3 3d 68 c9 09 bf e4 7c 05 bf
       -0.0510695 0.080068186 -0.53822947 -0.5214369
000230 d7 34 ca 3d 34 82 62 be ce d1 cb be 6d d0 98 3e
       0.0987336 -0.22119981 -0.39808506 0.29846516
000240 ed a4 3d 3f 67 4f 00 3e a2 3f 97 be 94 3a 38 be
       0.7407978 0.1253029 -0.29540735 -0.17991096
000250 f4 bc c4 be 2f 57 85 bd bb 2b 90 be ac 70 50 bd
       -0.3842541 -0.065107696 -0.28158364 -0.050888702
000260 d2 e4 74 3c a3 6c ea bd c6 04 71 bd 6b bd b0 bd
       0.014947133 -0.11446502 -0.058842443 -0.086298786
000270 f4 0c d8 3e eb a0 31 3c 35 88 9f 3e bc 71 3b 3e
       0.42197382 0.0108415885 0.31158605 0.18305105
000280 e1 9c 13 be 89 09 2d 3e f4 0a 0b bd f7 57 dd be
       -0.14415313 0.16898169 -0.033945993 -0.43231174
000290 d0 fe 1c 3e 3d ff bb be 59 e1 ce 3e 6f 20 95 be
       0.15331578 -0.3671817 0.40406302 -0.29126307
0002a0 df ee 88 3e 36 17 29 be 6a 3e ca be 03 9f 07 bf
       0.26744744 -0.1651276 -0.39500743 -0.5297701
0002b0 1d 4c 96 bd d2 ee d9 be 3b 0b 81 3e ad de ee be
       -0.07338736 -0.42565018 0.2520388 -0.46654263
0002c0 49 84 c2 3e 0a 3f 08 be 48 2c ba be 07 2f ef be
       0.3799155 -0.13305297 -0.3636191 -0.46715567
0002d0 31 0b 3d 3f ad 5f da 3e 1a 4c 09 bf 0b 26 d2 be
       0.738452 0.4265112 -0.53631747 -0.4104465
0002e0 f3 db d8 3d f7 f3 3d 3c 52 6f 76 be 08 14 36 3e
       0.10588827 0.01159381 -0.24065903 0.17781079
0002f0 90 40 ac be 44 d1 d8 be bf 02 5e 3e 14 99 12 3f
       -0.33643007 -0.42347157 0.21680735 0.5726483
000300 8d 0f 9d 3d ca e5 c6 bd c5 fc 79 3e 3b 3c c4 3d
       0.07668982 -0.097117975 0.2441283 0.095818006
000310 6e 8d 1b bc 45 b5 9d 3c fb 83 36 3e c1 07 d4 3d
       -0.009494169 0.019251475 0.17823784 0.103530414
000320 74 aa a1 3e f1 70 60 bd 90 3c a9 be f9 e7 74 3d
       0.31575358 -0.05479521 -0.33054018 0.05979154
000330 97 93 14 3f fa 10 fa 3d 20 86 64 3e 20 24 f9 bd
       0.58037704 0.12210269 0.2231679 -0.121650934
000340 11 6d 24 be 03 0e 5c be c4 98 aa 3e 28 0d ae 3e
       -0.1605723 -0.2148972 0.33319676 0.33994412
000350 dc b8 cb 3b ee 90 8a be 48 8c d5 be 3c 63 10 bf
       0.0062171053 -0.27063698 -0.4170859 -0.5640142
000360 58 d7 dc 3d 71 c3 6f be f5 2e 86 3c b9 cc c4 3d
       0.10783261 -0.23414399 0.016379813 0.0960936
000370 95 a4 c8 bc 04 ee 12 3f 37 2b 84 be 71 b3 f6 3e
       -0.024492541 0.57394433 -0.2581422 0.48183778
000380 41 32 32 3f 81 91 96 bd f0 4b 21 be e2 6c 27 bd
       0.6960793 -0.073519714 -0.15751624 -0.040875323
000390 06 76 e0 3d ce 77 8f be 39 5b c1 3e 55 e2 6f be
       0.10960011 -0.2802109 0.3776491 -0.23426183
0003a0 a3 b3 95 be cc cb b8 3e 2b 4c c3 be 31 6d 91 3e
       -0.29238614 0.36092985 -0.3814405 0.2840362
0003b0 94 d2 1d 3d 21 50 8f bd 8e 8c 41 3e 19 4f 56 be
       0.0385309 -0.06997705 0.18901274 -0.20928611
0003c0 46 69 f4 bd ad 50 af 3e 2a c7 52 bd b6 c6 17 3f
       -0.11934142 0.34241238 -0.05145947 0.59287584
0003d0 b7 62 58 3f e5 1e a7 3d 38 b9 79 3d fe 8d ae bd
       0.84525627 0.081601895 0.060967654 -0.085231766
0003e0 44 82 2a be 68 7a e3 be 4c 0b b7 bd 81 0d f2 3e
       -0.16651255 -0.44429326 -0.089377016 0.47275928
0003f0 07 14 e3 3e 71 b4 09 3f 1f b2 6a be 3f 11 99 bc
       0.44351217 0.53790957 -0.2291951 -0.018684981

encoder.layers.0.fc.0.bias f4 [128]
000000 23 9f 30 bd da 1e 70 3e fd 02 a9 bd 86 60 76 bb
       -0.043120515 0.23449269 -0.08252523 -0.0037594154
000010 4f c8 eb 3b fe fc 56 be 47 87 16 be 6f 26 5e be
       0.0071955095 -0.20994946 -0.14700042 -0.21694349
000020 61 99 a0 3e f4 93 38 3e 76 1e ce be 57 c7 ac be
       0.3136702 0.1802519 -0.40257615 -0.33745834
000030 5b 65 02 be 14 c1 80 3e b3 a5 ee 3e e9 bf b9 bd
       -0.12733977 0.25147307 0.46610793 -0.09069807
000040 cc d8 55 be 30 27 04 bd e5 70 3f be 88 90 e2 be
       -0.20883483 -0.032263935 -0.1869541 -0.44250894
000050 7c 9d b8 3e 7b 50 3d bd 1e 58 35 be 2e 41 ad 3e
       0.3605765 -0.04621933 -0.17709395 0.3383879
000060 e2 2d 68 3e 93 37 ea be c1 76 98 3e de 22 b8 be
       0.22673753 -0.45745525 0.29778102 -0.35964102
000070 0c 68 5c 3e 5a 13 09 bf ff 80 84 be 20 e5 af be
       0.21524066 -0.53545153 -0.25879666 -0.34354496
000080 48 85 61 3e 3b 95 fa be d2 b2 87 be 41 27 91 be
       0.22023499 -0.4894198 -0.26503617 -0.2835026
000090 12 a7 d7 3e 9e 50 24 be 71 53 46 3e 1b 8c a9 3e
       0.42119652 -0.16046378 0.19367768 0.33114704
0000a0 b2 f0 cc 3a 4a 9a 38 3e a5 07 9a 3e 6c f8 a7 3d
       0.0015635698 0.18027607 0.30083957 0.082016796
0000b0 3c 9e 84 3e 4d b4 1b be 9a 07 03 bf 0b 75 9d be
       0.25901973 -0.15205498 -0.51183474 -0.3075336
0000c0 10 2a 4b 3e b8 12 5f 3e b6 b8 03 bf d4 9a 8f bd
       0.19840264 0.21784484 -0.5145372 -0.07011953
0000d0 5e 86 bc be 60 ca 64 3e 5b 3f b7 3e 14 8c c0 bc
       -0.36821264 0.22342825 0.35790524 -0.023504294
0000e0 aa fd 95 3d 80 ae c5 3c 1a 46 90 3e 72 50 17 bf
       0.07323773 0.02413106 0.28178483 -0.59107125
0000f0 24 26 06 bf ad 6f 13 bd d8 a6 06 bd 57 49 be 3e
       -0.5240195 -0.035995174 -0.03287396 0.3716533
000100 50 b9 f9 3d 5b 6a 24 3e 26 4e e9 be 1f d7 37 3e
       0.12193549 0.16056196 -0.45567435 0.17953156
000110 8d ff ee be 69 a0 78 bd a6 ad 8a be 2d c8 9a bd
       -0.46679345 -0.060699854 -0.27085608 -0.07557712
000120 2a 49 05 bf ea 0f e6 3d b0 51 47 be 8a 99 96 3e
       -0.52064764 0.11233504 -0.19464755 0.29414016
000130 18 7a 3e 3e ff 8f 68 be 7e 16 8d 3e c6 2e 85 3d
       0.18601263 -0.2271118 0.27556223 0.06503062
000140 5c 19 1e bd f9 4b 9d be cc 50 43 be 31 a0 77 be
       -0.038598403 -0.30722025 -0.1907379 -0.24182202
000150 34 de 51 3e 0a 38 c4 be 1d f1 e3 be 04 57 03 be
       0.2049492 -0.38324004 -0.44519892 -0.12826163
000160 ea 0e 27 be 72 8b 88 3e a8 5e f7 be a9 bb ba be
       -0.16314283 0.26668888 -0.48314404 -0.36471298
000170 c4 20 ff be 85 6e 19 be de f6 fe 3c 20 06 d8 be
       -0.49829686 -0.14983566 0.031123575 -0.42192173
000180 0d 03 89 3e e3 24 4e be d0 6d a1 3e ba f2 83 bd
       0.2676014 -0.20131259 0.31529093 -0.06442781
000190 50 47 dd bd 6f 6e eb bb 6b 76 ce be a0 ae 98 3e
       -0.108046174 -0.0071847956 -0.4032472 0.29820728
0001a0 b2 d6 e3 be 40 5d 72 be 07 ac 1b be ef 74 9f be
       -0.44499737 -0.23668385 -0.15202342 -0.311439
0001b0 75 96 91 be ff f1 bc 3d f4 31 85 bd 4d b3 66 3d
       -0.28435102 0.092258446 -0.065036684 0.05632334
0001c0 6f 78 23 3e 0a d6 a0 bd 61 20 a1 be 3f 8b ae 3e
       0.1596391 -0.07853325 -0.31470016 0.3409061
0001d0 81 1b 44 3e 7b 2f 46 be 61 e4 0d 3e 4e 2b be bd
       0.19151117 -0.1935405 0.13856651 -0.092856035
0001e0 eb 3a a4 be 9f 83 a5 3e 72 96 fa bc 85 c2 84 3e
       -0.320762 0.3232698 -0.030589316 0.25929657
0001f0 8e 5d e9 3d 3d 7f 55 be c4 ad 90 be 9c 10 4f bd
       0.11394797 -0.20849319 -0.28257573 -0.05055295

encoder.layers.0.fc.2.weight f4 [4, 128]
000000 f2 f8 22 bd 84 49 86 bd c4 80 66 3c 51 96 f3 3c
       -0.039788194 -0.06556991 0.014068786 0.029734762
000010 1d a8 55 3d f2 4e 2f be df f0 e7 bc 2b bf 9c be
       0.05216228 -0.17119959 -0.028313098 -0.306146
000020 02 cb be bc bf e6 e3 bc c6 5d 7b 3d e8 4a 89 be
       -0.023290161 -0.02781999 0.061368726 -0.2681496
000030 5a b1 26 be 58 75 95 be 13 7f 0e be 98 e4 41 3e
       -0.16278592 -0.2919109 -0.13915662 0.18934858
000040 80 c2 a5 3b 0f 5f 6f bd ff c0 07 bd f6 4a 07 3e
       0.0050585866 -0.058440264 -0.03314304 0.13212189
000050 b4 64 47 3d 11 23 be bd 6d ba 45 3d bd a0 f3 bb
       0.048680022 -0.09284032 0.048273493 -0.007434933
000060 2f 19 e3 bd 9c f1 38 bd f3 56 d7 bc 5b c1 05 be
       -0.11088788 -0.04515229 -0.026286578 -0.1306204
000070 c1 7f 3f 3d 1d a4 ce 3d 1f d2 90 3b 5b 86 b8 bb
       0.046752695 0.10089896 0.0044195796 -0.005631251
000080 e2 fa c7 bc ac c8 f9 3c 86 48 29 be bc b1 1c be
       -0.024411622 0.030491196 -0.16531572 -0.15302175
000090 69 fe 46 be c6 4e 35 bc 47 1f 38 3d 78 b3 98 3c
       -0.19432987 -0.011066144 0.044951703 0.018640265
0000a0 41 94 b3 3c 0e 1b 17 3e 33 c4 a1 bd 36 83 c8 3d
       0.021921279 0.14756414 -0.0789875 0.097906515
0000b0 7c 54 0e bd 5e d3 8c be fe b5 57 bd 74 ce 9e 3d
       -0.03474854 -0.2750501 -0.052663796 0.077542216
0000c0 58 22 2d bc ad f1 74 3b bd 35 8d 3c ae 65 9b 3d
       -0.01056727 0.0037375495 0.017237538 0.07587753
0000d0 41 c9 d8 b9 6c 87 8d 3c 43 83 9e 3c 80 f7 bb be
       -0.00041348676 0.017276488 0.0193497 -0.36712265
0000e0 6b ca 73 be c6 75 80 3d 3a ff d3 bd 47 db 1a 3d
       -0.23807685 0.062724635 -0.10351415 0.037806775
0000f0 f6 78 07 bc bf bf e2 bd 04 e7 aa bd c7 e8 3d be
       -0.008268585 -0.11071729 -0.08344844 -0.18545829
000100 b6 ce cb 3c ee f9 56 be 8d 34 93 3c c1 50 81 be
       0.02487884 -0.20993778 0.017969394 -0.25256923
000110 60 8b 07 bd dc ac 3d be eb 1c 12 3e e1 8f 12 3e
       -0.033091903 -0.18522972 0.14268844 0.14312698
000120 56 93 a4 3d f8 9e 7e 3d 6c 37 86 3d c9 ad f0 bd
       0.080359146 0.062163323 0.0655354 -0.11751897
000130 a0 f8 2f ba 9c 2c d7 bd dd 57 39 bd 33 36 17 ba
       -0.0006712768 -0.105065554 -0.04524981 -0.0005768269
000140 58 6a 91 3c 86 58 a0 be 43 53 12 bd 9a bb 0d 3c
       0.017750904 -0.31317538 -0.035723936 0.008650685
000150 4f 63 ac bc ac af 41 bd 2f ff 39 3e fd 9d 8e be
       -0.021043448 -0.047286674 0.18163751 -0.2785491
000160 71 ca 72 3c ba ce 0b 3d a8 32 84 3d ce 85 32 3d
       0.014818774 0.034132697 0.064549744 0.043584637
000170 c2 8e da 3a 5c a1 ce bd 94 d5 78 3d 46 31 63 be
       0.0016674625 -0.100893706 0.06075056 -0.22186765
000180 0c 1b 14 3e e9 8b 05 bd ce 88 bf 3d 1f 3e be bd
       0.14463443 -0.03260413 0.09352265 -0.092891924
000190 6c 21 76 be 8a 30 04 3d 80 08 c1 bd 5c 87 c1 bd
       -0.24036187 0.032272853 -0.09425449 -0.09449646
0001a0 d0 8c a4 bd df bb 79 3d 14 7e 0b be c4 2a f1 3c
       -0.0803467 0.060970183 -0.13622314 0.029439338
0001b0 3c 6a 78 bd 87 6b ca bc b0 3a 21 3d 8c 3b bf bb
       -0.060648188 -0.024709476 0.03936261 -0.005835956
0001c0 41 00 b0 3d 2b 3b fc 35 49 71 d7 bd 6c 40 fa bd
       0.085937984 1.8792683e-06 -0.10519654 -0.12219319
0001d0 e1 b7 9f bd d6 fe 28 be e3 40 91 bc ff ff 9e 3d
       -0.07798744 -0.16503462 -0.017731136 0.07763671
0001e0 ec f0 e8 3d 32 91 1c be 68 c2 5a bc 9b 6b a6 bd
       0.11374077 -0.15289763 -0.013352014 -0.08125993
0001f0 e1 3f a2 3d 96 77 13 be 2f 0e 0b 3e 2c a2 b0 3b
       0.0792234 -0.14401087 0.1357963 0.005390426
000200 13 f3 fe bd 87 b8 06 be db 58 ac 3c 41 fc 98 3d
       -0.124487065 -0.13156329 0.021038463 0.074699886
000210 79 0d c4 3d ae 1e 97 bd 69 e0 32 bc 93 a0 59 3e
       0.09572882 -0.073788986 -0.010917761 0.2125266
000220 4b e7 03 bd 43 93 f4 3d 73 c6 94 be 2d 70 30 be
       -0.032203 0.119421504 -0.29057655 -0.17230292
000230 71 ce 52 be 3b a0 9f be 91 2b 81 be 2b ca 64 3c
       -0.20586564 -0.31176934 -0.2522855 0.013964216
000240 ac 52 d1 3d fe 93 53 be 1f 48 70 3d aa aa 64 be
       0.102208465 -0.20661923 0.05866253 -0.22330728
000250 62 57 85 3d 9a 57 db 3c 52 c9 41 3e 08 ec 55 3d
       0.065108076 0.02677517 0.18924454 0.05222705
000260 18 72 a3 bd df 59 6d 3d d8 48 c5 3d cb 1d 54 3e
       -0.07980746 0.057947036 0.096330345 0.2071449
000270 e7 d5 99 3b d3 76 88 bc 7b 3f 02 bd 4d 43 6c 3d
       0.0046946886 -0.016658222 -0.03179882 0.05768137
000280 ba d1 ff 3d 11 8e 19 be b4 c7 a4 3d 6a df 1f bd
       0.12491174 -0.149956 0.08045903 -0.039031424
000290 ce d3 86 be a4 ea 42 bd 19 d2 20 3d bf c2 0e 3c
       -0.2633347 -0.047587052 0.039262865 0.008713423
0002a0 fc d0 61 3c 4b 83 bb 3d e2 5b 90 be 43 39 d8 3c
       0.013782736 0.091559015 -0.281951 0.026394492
0002b0 43 59 8c be 9f 7a 73 bd 73 4d f6 bc 6a 97 8d 3e
       -0.2741185 -0.059443112 -0.030066228 0.27654582
0002c0 97 c3 a1 bc ec bd 40 3d 62 0b f1 3c 5c 0d 9e be
       -0.019746585 0.047056124 0.029424373 -0.30869567
0002d0 32 8b 81 3c 8a ae 89 be 34 c1 80 3d ac b0 80 be
       0.015813444 -0.26890975 0.062868506 -0.2513479
0002e0 12 2a 89 be ad 06 4b bc a4 8f 87 bc 9f 11 40 3d
       -0.2678991 -0.012391728 -0.016547985 0.046891805
0002f0 8d 16 42 3d 15 c0 a7 be 57 4e 6f 3e ee 3c 09 bd
       0.047384787 -0.32763734 0.23369728 -0.033505373
000300 2f 97 a6 3d 36 0c 8b bd 8a cd 23 3d b5 35 82 be
       0.08134305 -0.067894384 0.03999094 -0.254316
000310 1c 92 81 bb 2a 50 6d 39 e2 2e 7f be 02 5f 14 3d
       -0.003954185 0.00022631945 -0.24920228 0.03622342
000320 a9 7f 86 bc 0d c8 90 3c 3f 16 e9 3c 05 56 03 bc
       -0.016418295 0.017673517 0.02845299 -0.008016114
000330 e2 e6 bb 3d f6 c4 df bd cc 07 b8 3c 71 c5 72 3d
       0.09174897 -0.10926239 0.022464655 0.059270326
000340 e8 d8 14 3e cd 70 78 3e 6e d7 31 3b e7 a8 68 3e
       0.14535868 0.2426178 0.0027136463 0.22720681
000350 e9 c6 1b 3d fb b8 0e bd bc 4b 28 be 41 5b 2d be
       0.038031492 -0.03484438 -0.1643514 -0.16929342
000360 d1 26 fc 3d dc df 2e 3d 36 f1 3b 3d d9 e9 5b bd
       0.12312091 0.042693958 0.045884334 -0.05368981
000370 28 5c 32 bd 51 5e 60 be 1b dc f2 3d 01 42 1d 3e
       -0.04354492 -0.21910979 0.11858388 0.1535721
000380 a7 58 4b 3e cd 65 0c be 17 f8 6e 3e 16 bd 2f be
       0.19858037 -0.13710709 0.23336826 -0.17161974
000390 f5 02 ba be b8 59 ab 3d f6 b9 57 3d 81 eb a6 3c
       -0.3633038 0.08366722 0.05266758 0.020375969
0003a0 e3 c9 49 bc c3 6b e3 3d 29 24 4f 3d 9b 8f b7 3d
       -0.0123162 0.11104538 0.050571594 0.089629374
0003b0 32 9e 81 bc 13 5c 58 3d 01 0e 46 3c 71 d8 9a 3d
       -0.015822504 0.052822184 0.0120883 0.07560814
0003c0 5d d6 47 3e 63 ca 4c 3d eb 68 9c 3d 56 e1 d2 3c
       0.19515367 0.0499977 0.07637199 0.025742214
0003d0 56 6d 2e be 4e c5 d8 3c ad af 0f 3d d0 15 d0 3d
       -0.17033896 0.02646127 0.035079647 0.101604104
0003e0 4f 48 61 ba 2d 66 4e bc 95 43 ff 3d 0f db f6 3d
       -0.00085938437 -0.012597603 0.12464062 0.12053501
0003f0 9b bc ee bd 00 43 4b 3d c1 1f 9c 3d f8 f4 ff 3d
       -0.116570674 0.049624443 0.07623244 0.12497896

encoder.layers.0.fc.2.bias f4 [4]
000000 4d 43 96 bd 40 15 5e 3d 64 4a 11 3c 30 08 d0 ba
       -0.07337055 0.054219484 0.008867834 -0.0015871581

encoder.layers.0.norm1.weight f4 [4]
000000 ea c4 3a 3f dd 9f 7c 3f 3e e9 77 3f 0a c0 7f 3f
       0.72956717 0.9868143 0.96840274 0.99902403

encoder.layers.0.norm1.bias f4 [4]
000000 6a 77 33 3e b2 2a 2e 3d e7 51 be bd 76 eb 93 bc
       0.17526022 0.042521186 -0.092929654 -0.018056612

encoder.layers.0.norm2.weight f4 [4]
000000 81 f7 47 3f 28 3d 6b 3f a0 dc 4d 3f ff 40 63 3f
       0.78112036 0.9189019 0.8041477 0.8877105

encoder.layers.0.norm2.bias f4 [4]
000000 90 41 f9 3d 7b 69 84 3d 32 5f 15 be e0 70 c5 bc
       0.12170708 0.06465431 -0.14587095 -0.024101675

encoder.layers.1.self_attention.query.weight f4 [4, 4]
000000 18 39 9d 3e 1f 0d 30 3e d6 f1 18 3e f5 83 51 bb
       0.30707622 0.17192505 0.14936003 -0.0031969522
000010 6b 92 cf 3e 9a 53 ce 3e 56 e6 e1 be b5 2a a1 be
       0.40541396 0.40298158 -0.44121045 -0.31477895
000020 3e 7e e0 3d 69 50 4a 3e a3 f4 7c 3e 3c e3 02 be
       0.10961579 0.19757237 0.24702697 -0.12781996
000030 54 bc 0f be 89 63 d0 be 57 b9 37 be 5b 13 51 be
       -0.14036685 -0.4070094 -0.17941795 -0.2041754

encoder.layers.1.self_attention.query.bias f4 [4]
000000 6e 70 3d be 0f 88 90 3e 71 f7 0e be 61 4b c5 be
       -0.1849992 0.28228804 -0.13961579 -0.38534072

encoder.layers.1.self_attention.key.weight f4 [4, 4]
000000 65 26 ad bd 05 5b 8b be bb db 61 3e 04 a8 e6 3d
       -0.08454589 -0.2721788 0.22056477 0.11262515
000010 47 fc 70 3e 04 c8 fa bb 88 f5 d4 bc 8f 68 e3 3c
       0.23533736 -0.0076532383 -0.025995985 0.027759818
000020 49 7c 0d 3d 18 46 7d be d8 21 bc 3e 95 c1 f3 3d
       0.034542356 -0.2473377 0.3674457 0.11902157
000030 92 97 19 3d 02 6e 60 bd be f3 48 be 98 c6 9c 3e
       0.037498064 -0.05479241 -0.1962423 0.30620265

encoder.layers.1.self_attention.key.bias f4 [4]
000000 1a b9 ea 3e f4 43 96 3e 11 ea d7 bc d1 04 93 be
       0.45844346 0.2934872 -0.026356729 -0.28714612

encoder.layers.1.self_attention.value.weight f4 [4, 4]
000000 d2 85 03 bf 36 79 c6 3e 8b f6 c8 3e 45 ac e1 3e
       -0.5137607 0.38764352 0.39250597 0.44076744
000010 2f 00 16 3e 2e 36 b5 3e 06 32 cc 3e a2 d5 20 be
       0.14648508 0.35392898 0.39881915 -0.15706494
000020 7f dd d0 3c 04 b8 5f be 68 c7 19 bf 09 dd 7e 3f
       0.025496243 -0.2184754 -0.60069895 0.9955602
000030 2d de 38 3e d6 db 84 3e 8d 46 9e 3e 0d 4f 51 bf
       0.18053503 0.25948972 0.309132 -0.81761247

encoder.layers.1.self_attention.value.bias f4 [4]
000000 18 b9 9c bc e6 be eb bd 1b 94 40 be dd 83 05 3e
       -0.019131228 -0.1151102 -0.18806498 0.13038583

encoder.layers.1.fc.0.weight f4 [128, 4]
000000 11 6e 60 3e b5 17 8c be 60 c6 1b 3e fc 71 19 bf
       0.21916987 -0.27361837 0.15212393 -0.5993955
000010 af d0 e8 3e 69 d7 a2 3e 3c cd 26 3d 77 88 85 be
       0.45471713 0.3180497 0.04072307 -0.26080677
000020 32 5f 6e 3c 76 49 98 3d 29 fd d9 3c b4 e3 3f be
       0.0145490635 0.074358866 0.026609974 -0.18739206
000030 be 4f ac be 8d d1 59 3e 59 88 b3 3e f3 b3 53 3e
       -0.33654588 0.21271344 0.35064963 0.20674114
000040 66 7a a2 be 60 59 0f 3e 60 33 fa 3d 46 e7 e9 be
       -0.31734008 0.13998938 0.1221683 -0.4568426
000050 5c b1 cc 3e 8f 80 d3 3e 47 d2 0b bf 58 85 c6 3e
       0.39979064 0.4130902 -0.5461773 0.38773608
000060 dd 13 25 be 62 e2 f7 bd 6c ab 61 3e c0 77 b1 3e
       -0.16120858 -0.12103726 0.22038049 0.34661674
000070 f3 8b 9f be ce fc 8b 3d f2 3c 23 bf b1 76 1e 3f
       -0.3116146 0.06835328 -0.6376487 0.6189986
000080 9c 7a 31 be 54 3a 7c be 58 38 e4 bd d1 5f f4 3d
       -0.17331928 -0.24631625 -0.11143559 0.11932338
000090 56 22 f1 bd e7 ec 26 3d 01 96 80 3e f4 e2 98 be
       -0.11774127 0.04075327 0.25114444 -0.29860651
0000a0 d5 89 0b 3d 5d 07 7a be 80 8b ce 3d 1b 6f 2e bf
       0.034066994 -0.24416871 0.10085201 -0.68138283
0000b0 1a d5 8a be 66 64 96 3e c1 75 9c be 76 74 1e 3e
       -0.2711571 0.29373473 -0.3055859 0.15474114
0000c0 01 3d 9f 3e d1 25 97 bd 85 c3 dc be 4a 72 b7 3d
       0.3110123 -0.0738026 -0.4311792 0.08957346
0000d0 dc 04 4f 3d 54 78 5f 3e 18 45 6c be d5 e7 92 3e
       0.050541744 0.21823245 -0.23073232 0.286925
0000e0 b8 a6 09 3f 0b b9 60 be e5 d5 a8 be 1b 89 86 be
       0.5377002 -0.21945588 -0.3297569 -0.26276478
0000f0 35 37 7c be b7 09 e7 be 9d 17 87 3e 1f 26 4a be
       -0.24630435 -0.451246 0.26385203 -0.19741105
000100 cb e9 9c be cb d2 88 be 28 9d 66 3e f2 04 89 3e
       -0.3064712 -0.26723322 0.22520888 0.26761585
000110 d5 22 fb 3e 46 15 34 3e a3 ec a3 be 17 89 2d 3e
       0.49050012 0.1758624 -0.32016477 0.16946827
000120 53 1e d1 be 4a 98 16 3e 1f d2 4f be 39 85 87 3e
       -0.40843448 0.14706531 -0.20294999 0.26468828
000130 cf e7 04 3e 59 d6 9c be d3 3c 84 3e bf 97 03 be
       0.12979053 -0.30632284 0.25827655 -0.12850855
000140 09 74 69 3e 6a a3 0b be d7 d8 7e 3e fc 8c 9e be
       0.2279817 -0.13636556 0.24887405 -0.30966938
000150 5d e4 5d be c9 24 a7 3e 14 27 a0 be 57 64 31 be
       -0.21669145 0.32645252 -0.31279814 -0.17323433
000160 77 39 44 3e 3a 3a 93 3e 90 9f dc 3e f0 95 08 3e
       0.19162546 0.2875536 0.43090487 0.13338447
000170 a2 39 e7 3d 8b a6 a7 3b 45 81 57 3d 4e 93 4c 3e
       0.112902895 0.005116289 0.052613515 0.19978067
000180 c3 e2 cb 3e 0d bd d2 3d 0a ea 34 bf 63 87 d2 3e
       0.39821443 0.10289965 -0.70669615 0.41118917
000190 b0 b8 9c bd 11 30 b9 3e 84 f9 05 bf 9c fa bb 3d
       -0.07652414 0.36169484 -0.52333856 0.09178659
0001a0 a8 e6 b4 be 4d 37 5b be 17 50 8a be ce bc 7f be
       -0.35332227 -0.21407814 -0.2701423 -0.24974367
0001b0 19 3e 8d 3e 98 f5 96 3e e6 f8 06 bf 0c 5d a7 3e
       0.2758644 0.29484248 -0.5272354 0.32688177
0001c0 e4 1c e4 be a0 e5 d0 be 48 5f 2c bd 40 5b 9a 3e
       -0.44553292 -0.4080019 -0.042083055 0.30147743
0001d0 a9 38 56 3d ed 58 d3 be d5 29 f3 3e 08 d5 6d be
       0.05230013 -0.41278782 0.47492853 -0.23225796
0001e0 a2 03 34 be cb 8b 06 be 43 ff 1c 3e ef 33 a8 3e
       -0.17579511 -0.13139264 0.1533175 0.32852122
0001f0 17 b7 9a 3e 99 55 89 3e 8e 0b e4 3c 05 4f 8d 3e
       0.3021781 0.26823118 0.027837541 0.2759935
000200 fc 53 0e 3e 2c 7e 09 be f3 67 ba 3e b8 72 1b 3e
       0.13899225 -0.13427037 0.36407432 0.1518048
000210 5a 59 c4 3e 4e 4a 2b be 55 7b 99 bd 01 7a f4 bd
       0.3834942 -0.16727564 -0.07494227 -0.11937333
000220 c3 04 37 be 53 b4 96 bd b9 a8 32 be f4 2a a7 be
       -0.1787291 -0.07358613 -0.17447175 -0.32649958
000230 17 9d 49 3e d5 5a 37 be 00 73 ce be b4 65 8c 3e
       0.19688831 -0.17905743 -0.40322113 0.27421343
000240 78 3e f8 3e ae 4e 7d 3e b3 44 f9 be 0a 97 3b 3c
       0.4848516 0.24737045 -0.48685226 0.011449585
000250 08 88 ce be 1b c9 c1 bc 08 d9 7a be 00 a5 d0 bd
       -0.4033816 -0.023655465 -0.24496853 -0.10187721
000260 46 9f 31 3b 1b 4f bf bd ea a2 1a bc 87 a7 f2 3c
       0.002710299 -0.0934126 -0.009438256 0.029620899
000270 e6 c4 c6 3e bb 30 8d 3d 4b e2 be 3e b8 18 88 3e
       0.38822097 0.0689406 0.37282023 0.2658136
000280 54 85 46 be 97 d6 85 3e b6 90 ba 3c 50 f6 a8 be
       -0.19386798 0.26140282 0.022774082 -0.33000422
000290 71 5e 67 3e 9b fa d9 be 09 c4 a0 3e b3 59 d2 3c
       0.2259462 -0.4257401 0.31399563 0.025677538
0002a0 e9 bb 53 3d c3 2a 82 be d3 6d ca be 24 bc a6 be
       0.051692877 -0.2542325 -0.39536914 -0.32565415
0002b0 a0 3d 53 bd f3 ad d5 be 58 de 01 3e 99 4e 7e be
       -0.051572442 -0.41734275 0.12682474 -0.2483467
0002c0 2d 26 0f 3e e1 78 5b 3b 14 14 0f bf 2f c2 1a be
       0.13979407 0.0033488797 -0.5589001 -0.15113138
0002d0 7c e6 ea 3e 1b 72 ee 3e b8 ae 9c be 0d 0d db be
       0.4587897 0.4657143 -0.3060205 -0.42783394
0002e0 c1 ff 94 be 16 ee d3 3e 45 46 93 be 9f 08 08 3f
       -0.29101375 0.41392583 -0.2876455 0.53138155
0002f0 01 13 3b be c7 be bc be 4a 59 d6 3d 79 55 af 3e
       -0.18268968 -0.36864302 0.10466249 0.34244898
000300 58 0d f3 3c b4 92 ad bd fb 05 b1 3e 3b df 3f 3e
       0.029669449 -0.08475247 0.34574875 0.187375
000310 0c 93 ca bc c8 02 fd 3c 3b e7 6e 3e 85 06 82 3d
       -0.02472832 0.030885115 0.23330395 0.063489
000320 35 b7 b9 3e 51 40 67 bd 6e ae b5 be 42 46 40 3d
       0.36272588 -0.05645782 -0.35484642 0.046942003
000330 76 e4 e5 3e f5 db b7 3d bf 0c 75 3e 28 09 d1 3d
       0.44900864 0.089775 0.23930643 0.102068245
000340 a8 56 10 be c1 7a f8 bd 5e 42 c3 3e 54 39 c4 3d
       -0.14095557 -0.121327884 0.38136572 0.09581247
000350 25 b9 4f be 35 e9 77 be d7 70 e3 be 03 70 9b be
       -0.20285471 -0.24210055 -0.44422027 -0.30358896
000360 19 48 00 3e 16 71 8f be e3 b8 a8 3d 5b 50 cd bc
       0.12527503 -0.28015965 0.08238389 -0.02506273
000370 11 db 0a 3c ee 72 ca 3e db 33 49 be 00 3e 8d 3e
       0.008475081 0.3954081 -0.19648688 0.27586365
000380 99 59 e5 3e ea 49 3a 3e 3c 5f d3 bd 80 68 2d 3d
       0.4479492 0.18192258 -0.10320899 0.042335987
000390 30 27 9d 3d 56 bc 5d be 09 62 cc 3e 64 30 4a bd
       0.0767349 -0.21653876 0.39918545 -0.049362555
0003a0 43 87 98 be 56 ff a8 3e 43 bb ba be 76 05 87 3e
       -0.29790697 0.33007306 -0.36470994 0.26371354
0003b0 c7 2e 32 3e 4b e6 3c be 87 be 93 3e bb e2 43 be
       0.17400657 -0.18447225 0.28856298 -0.1912946
0003c0 5a 85 2f be 9d 8e cc 3e 4d 6b 0d 3e 8c 6e b0 3e
       -0.17140713 0.39952555 0.13810463 0.3445934
0003d0 f1 76 fc 3e f7 51 9d 3e 1f 23 0e 3e 7e ba ca bb
       0.49309495 0.30726597 0.13880585 -0.0061867824
0003e0 c5 c7 02 bc 12 1c b6 be 57 c6 2a be 3e 43 07 3e
       -0.007982199 -0.3556829 -0.16677223 0.13209245
0003f0 1a 0d dc 3e aa f4 ff 3e f3 df 9a bd 76 ed e7 be
       0.42978746 0.4999135 -0.07562246 -0.45298356

encoder.layers.1.fc.0.bias f4 [128]
000000 73 14 98 3e 74 bc b4 3e 6f 6a 5c bd e1 8d b7 3d
       0.29703102 0.35300028 -0.05381244 0.08962608
000010 e4 8d f0 3d c9 0b 97 be 9f 50 d3 bd 54 57 6f be
       0.117458135 -0.2950118 -0.10318112 -0.23373157
000020 60 69 c9 3e 45 4b 43 3e 09 60 bc bd f8 55 e2 be
       0.39338207 0.19071682 -0.09198005 -0.44206214
000030 4a cf 85 be 8d 92 64 3e 3f ee 9a 3e b3 7d af bd
       -0.26134712 0.2232153 0.30259892 -0.08568897
000040 38 a7 4c be 0f d9 90 be b3 92 31 be a2 3e cc be
       -0.19985664 -0.28290603 -0.17341118 -0.39891535
000050 17 36 a8 3e 50 f4 b4 bd 19 7c 2c be 30 9c bc 3e
       0.32853767 -0.088356614 -0.16844214 0.36837912
000060 62 50 d8 3e 91 f8 ef be 89 3d a1 3e 94 7a dc be
       0.42248827 -0.4686933 0.3149226 -0.4306227
000070 65 6d 86 3e 27 61 89 be b1 18 6a be ee 73 c5 be
       0.26255336 -0.26831934 -0.22860982 -0.3856501
000080 e2 a3 80 3e d9 dc f8 be e5 0e c3 be 13 ff 9f be
       0.25125033 -0.48605993 -0.380973 -0.31249294
000090 f7 51 ee 3e ef c7 00 be e0 15 6e 3e 71 cc c8 3e
       0.4654691 -0.12576269 0.23250532 0.39218476
0000a0 ab 5a 87 3d 27 5c 81 3e eb 8e 24 3e 28 58 53 3d
       0.066090904 0.2526562 0.16070144 0.051597744
0000b0 cc 82 10 3e be ac 3b be e8 8a 0f be d9 da 04 bf
       0.14112395 -0.18327615 -0.14017832 -0.51896435
0000c0 b8 82 84 3e 53 20 6f 3e 04 06 f8 be 1e ef 9d bd
       0.2588098 0.23352174 -0.4844209 -0.077116236
0000d0 ca 4a 9e be b0 37 1f 3e 03 1c b2 3e db e5 bc bd
       -0.30916435 0.15548587 0.34786996 -0.09223529
0000e0 f6 e8 84 bc bc 86 a5 3d 18 76 8c 3e 7b a8 f5 be
       -0.016224366 0.08082339 0.27433848 -0.47980103
0000f0 37 d4 f1 be 5a 35 24 be 3d 3e 44 be 58 2f a5 3e
       -0.4723222 -0.16035977 -0.19164367 0.32262683
000100 c9 e0 36 3e 9a 9a fc 3d 26 4e e9 be f8 0e cb 3d
       0.17859186 0.123341754 -0.45567435 0.099149644
000110 65 79 d2 be f6 17 90 bd 9c 3d 38 be 1e 85 1e bd
       -0.41108242 -0.0703582 -0.17992252 -0.03870117
000120 9d 53 c9 be af 02 1d 3e c4 9f 44 be f6 d9 a9 3e
       -0.39321604 0.15333055 -0.19201571 0.33174103
000130 86 63 5a 3e 5c 2e 86 be 98 fd 98 3e 78 b5 05 3e
       0.21327028 -0.26207244 0.29880977 0.13057506
000140 1f 86 9e bd 1c 11 ae be 86 88 1b be f8 49 c2 be
       -0.07740425 -0.33997428 -0.15188798 -0.3794706
000150 5b 44 78 3e bf 74 af be f3 d2 ce be 05 8b 17 be
       0.24244826 -0.34268758 -0.40395316 -0.14799125
000160 01 60 0b be c3 7c a9 3e 6a 9d f6 be 1c 20 b4 be
       -0.13610841 0.33102998 -0.48166972 -0.35180748
000170 c4 20 ff be 97 d5 b2 bd 39 c0 d3 3d a0 70 f0 be
       -0.49829686 -0.08732145 0.10339398 -0.46960926
000180 df 8e 82 3e 35 09 31 be bd fc 9f 3e 01 fc 9f be
       0.25499627 -0.17288668 0.31247512 -0.3124695
000190 45 f6 a4 bd 9d 89 2a 3e 78 fb cf be 50 79 a5 3e
       -0.08054785 0.16654058 -0.40621543 0.32319117
0001a0 6b b5 e0 be 14 06 54 be 2f b5 de be 22 b4 85 be
       -0.4388841 -0.20705444 -0.43497607 -0.26113993
0001b0 d5 a0 ac bc fc 66 0d 3e b4 4f 96 3c 62 17 fe 3d
       -0.021072784 0.13808817 0.018348552 0.12406804
0001c0 98 ca 29 3e d2 f9 f5 bc 74 3b c4 be 38 36 ab 3e
       0.1658119 -0.03002635 -0.3832661 0.33439803
0001d0 8d be 85 3e 36 db dd bc b2 e5 1a 3e 6b 08 e8 bb
       0.2612194 -0.027082067 0.15126684 -0.0070810816
0001e0 23 9d 48 be bb 93 bd 3e ac ed 74 3c 2d 33 8b 3e
       -0.19591193 0.37026772 0.0149492435 0.27187482
0001f0 a4 ad ab 3e c4 27 8d be 9a 6f ab be 5c 39 40 bc
       0.33530915 -0.275694 -0.33483583 -0.011732426

encoder.layers.1.fc.2.weight f4 [4, 128]
000000 32 e7 2b 3d 74 2b aa bc 86 d8 1c bc 26 84 7c 3d
       0.041968532 -0.020772673 -0.009573108 0.061649464
000010 da 7f 95 3d f2 f2 c8 bd e2 04 a0 bc 7d 67 8d be
       0.072997764 -0.09811963 -0.019533578 -0.27618018
000020 51 75 dc bc 56 d4 a0 bc 55 ed 28 3e b7 ce 0d be
       -0.02691141 -0.0196325 0.16496785 -0.13848387
000030 62 d2 1d be 5d a2 76 be 6a 3a a5 bd 6c 45 02 3e
       -0.15412286 -0.24085374 -0.08067782 0.12721795
000040 5a d1 0e 3d 46 47 1e bd 15 af a7 bc cd 55 31 3e
       0.034867622 -0.03864219 -0.020469228 0.17317887
000050 56 5e d0 3c 8a ac 67 bd d9 f2 92 3d 41 93 13 3c
       0.025435608 -0.05656103 0.07175226 0.009007276
000060 62 ba 1b be f1 1b 94 3d 92 49 61 bb 57 03 b7 bd
       -0.15207818 0.07231892 -0.0034376127 -0.08936184
000070 55 f6 68 3d b5 60 11 3e 12 8d 76 3c e1 86 a9 39
       0.056875546 0.14197047 0.015048282 0.00032334685
000080 94 1b 86 3c e9 a8 11 3e f9 ea fd bb 1a da cf bd
       0.016370572 0.1422459 -0.007748958 -0.101490214
000090 07 a6 89 be fe 31 0c bc c4 e7 52 3d cc f7 0a 3d
       -0.2688448 -0.008556841 0.05149056 0.033927724
0000a0 d3 33 44 3d ce 5a fc 3d 0d 32 dd bb 52 7f 89 bc
       0.047900986 0.12322007 -0.0067503513 -0.016784344
0000b0 13 59 0f bd 4d ea 1e be 62 80 9d be ba e9 14 3e
       -0.034997057 -0.15519066 -0.3076201 0.14542285
0000c0 dc 39 21 3a 89 27 ea 3c 26 31 69 bc 94 19 b0 ba
       0.00061502843 0.028583305 -0.014232909 -0.0013435357
0000d0 5a 88 7a bc f9 f7 1b 3d 9e 38 ff 3c be d7 20 be
       -0.015291298 0.038078282 0.031154927 -0.15707299
0000e0 2a 6a 79 bd 4f a1 d8 3c 36 5e 8b bd cd 3c 5a 3d
       -0.06089226 0.026444105 -0.06805079 0.05328064
0000f0 70 f6 24 bc 7c 50 b5 3c 82 ad 33 3b 19 c6 57 be
       -0.010068521 0.022133105 0.002741665 -0.21071662
000100 81 42 1f 3d ad cf 17 be 8d 34 93 3c 37 55 01 be
       0.038881782 -0.14825316 0.017969394 -0.12630163
000110 46 e1 83 bd b8 bd 48 bd d7 14 07 3e 7f 26 ec 3d
       -0.06439452 -0.049009055 0.13191544 0.1153078
000120 04 ff 3b 3e 76 c1 a0 3d 23 1f 94 3d fb a6 11 be
       0.18359 0.078494 0.07232501 -0.14223854
000130 b7 7a f9 3c 58 8c 1c be 17 eb 4c bd 2a 8a e6 3c
       0.030454023 -0.15287912 -0.050028887 0.028142054
000140 f6 cc 5e bc 74 1c 81 bd 07 b2 2f bc 74 9f c6 3d
       -0.013598671 -0.06304255 -0.010723597 0.09698382
000150 27 4b 27 bc 13 88 05 bb f1 62 24 3d 4f 00 f7 bd
       -0.010210789 -0.0020375296 0.04013342 -0.12060606
000160 af ce 21 3d 3e c1 82 3d 00 b4 9e 3d 6c 0c 59 3d
       0.03950375 0.06384514 0.07749176 0.052990362
000170 c2 8e da 3a 5c 50 5b 3e 9f f2 b6 3d b0 75 88 bd
       0.0016674625 0.21417373 0.08932995 -0.06663072
000180 3c 17 1f 3e 59 79 cc bb 4f 6b df 3d da 9f 82 bd
       0.15536207 -0.0062400517 0.10909139 -0.063781455
000190 3a cb ae bd 88 19 86 3d e5 d2 81 bd 32 ed db bd
       -0.08534856 0.065478384 -0.06339053 -0.10738601
0001a0 66 00 29 bd 3d af a6 3d 00 dc 3e bd 0b 86 4f 3d
       -0.041260146 0.08138893 -0.046596527 0.050664943
0001b0 b4 63 de bb 15 56 a5 bc 77 a1 0e 3d 5e 06 4b 3c
       -0.006786788 -0.020182649 0.034821954 0.012391655
0001c0 87 40 7e 3d 75 4d 40 3c 47 15 e7 3c 79 0e c0 bd
       0.062073257 0.011737217 0.028208388 -0.093777604
0001d0 d3 1c 05 3e a3 ba 98 be 90 42 e4 3b ba 9c cb 3d
       0.12999277 -0.29829893 0.0069659427 0.099420026
0001e0 0b 5a ea 3d 62 3e 0c be 84 0f 92 bc b2 3e 61 bd
       0.114429556 -0.13695672 -0.017829664 -0.05499143
0001f0 50 18 cc 3d 28 ea a4 3c ed 25 a6 3d 80 82 ae 3c
       0.09965575 0.020131186 0.081127025 0.021302462
000200 b0 1d 0a 3f b2 65 c7 3e 48 c1 cf 3c 30 22 5a 3d
       0.5395155 0.38944775 0.025360718 0.05325526
000210 89 cc a4 3d 1b 11 0e be f8 17 df bc d4 6f 17 be
       0.080468245 -0.13873713 -0.027233109 -0.14788753
000220 ed d8 58 bd bf 70 c5 3d 66 62 be 3c 45 b0 01 be
       -0.05294125 0.09640645 0.02324028 -0.12664898
000230 46 e1 47 bc f7 3a 5e be cd 5e ac 3a f0 92 45 bd
       -0.0121997055 -0.21702181 0.0013150811 -0.048235834
000240 9b c5 b4 3d 8b 8a 89 bd c7 fe 6c 3d f9 a8 1a be
       0.08826753 -0.06715878 0.057860162 -0.1510352
000250 50 7b 1d 3d 70 4a f5 3c e3 1b 13 3e 35 c1 dc 3c
       0.038447678 0.029942721 0.14366107 0.026947597
000260 7a cb 2b be ec b2 0c be e1 2a a4 3d 30 17 d6 bd
       -0.16776839 -0.13740128 0.08015991 -0.104536414
000270 74 6b 85 bc 06 41 94 3d 08 9a 67 bd e4 e8 dd 3c
       -0.01628659 0.07238965 -0.05654338 0.02708859
000280 89 12 c1 3d 66 39 8a 3d 95 21 1d 3c 6e 06 4a bd
       0.094273634 0.06749229 0.009590526 -0.049322538
000290 f7 75 70 be d4 6d 48 bd 17 f9 df 3c 1e cf ea bc
       -0.234825 -0.048932865 0.027340455 -0.028663214
0002a0 d2 91 9e bc 42 2a 7e 3d dc ee 53 3d 0a 05 c0 bc
       -0.019356642 0.06205202 0.051741466 -0.023439903
0002b0 79 33 fe bd 5a 66 bd bd 34 90 a0 be 10 ad 50 3d
       -0.124121614 -0.09248038 -0.31360018 0.050946295
0002c0 59 a5 f8 bc 0c 3a b0 3c 8e f0 6b 3d dc c6 8d bd
       -0.030352281 0.021512054 0.057602458 -0.06922695
0002d0 00 a5 92 bc 83 1d c4 bc 5b 6c 5e 3d c0 10 16 be
       -0.017900944 -0.023939854 0.054302555 -0.14654827
0002e0 70 8c 80 bd 50 17 d9 bc a8 52 01 bd 29 6b a6 3c
       -0.06276786 -0.026500374 -0.031572968 0.02031477
0002f0 2c 05 4f 3d ca fc f4 3d e3 4e 7c 3d 52 e3 9d 3e
       0.05054204 0.11962278 0.06159867 0.30837494
000300 b0 56 af 3d a4 23 b4 bd 8a cd 23 3d a3 3c 2d be
       0.08561456 -0.087958604 0.03999094 -0.16917662
000310 15 83 fa 3c 6c 59 5c bc c5 e7 30 be e6 d6 6b 3a
       0.030580083 -0.013449054 -0.17275913 0.0008996561
000320 81 e6 9c bd 3f bd bc 3b eb 7e 51 3d 26 92 fb bc
       -0.07661153 0.0057598646 0.05114643 -0.030709337
000330 01 2d 91 3d 08 b5 32 be d1 42 79 3a 7d 26 49 3d
       0.07088662 -0.1745187 0.00095085526 0.04910897
000340 25 03 bc bd 54 25 78 bd 0d 63 68 bc dc 5a 75 3d
       -0.09180287 -0.060582474 -0.014183772 0.059901103
000350 94 39 a2 3c f7 54 51 bd 3a a5 27 be b6 f8 04 3d
       0.019802846 -0.05110642 -0.16371623 0.03246375
000360 0c 7b d3 3d 33 7e 89 3c 44 de 16 3d 27 bd 2d bd
       0.10326204 0.01678381 0.036833063 -0.042416718
000370 28 5c 32 bd c3 d6 43 bd 0b 00 cd 3d 23 35 2a be
       -0.04354492 -0.047812235 0.10009774 -0.16621833
000380 a2 8c 82 3d b8 6f 8e 3e 34 dd 8a 3d 06 6c 78 39
       0.0637448 0.2781961 0.067804724 0.00023691365
000390 46 01 b5 3d 94 28 54 bb d3 c5 90 3d 4e 65 6c bc
       0.088381335 -0.003237282 0.07068982 -0.01442845
0003a0 7a e2 86 bc 9b 7e a6 3d 8f 4e f7 3c 3d 2e 8c 3d
       -0.016465414 0.08129617 0.030188827 0.06844757
0003b0 66 ff 16 3e 0b 2d ce 3c e9 e8 05 bc 1d 0a 3e 3d
       0.14745864 0.025167963 -0.008173206 0.046396364
0003c0 4f 5d 9a 3d 2a 00 21 3d 68 dc e5 bc 06 37 1e 3c
       0.075373285 0.039306797 -0.0280592 0.009656673
0003d0 dd 4f ef bc 98 34 9b be b2 9f 84 3c e0 bb a8 3d
       -0.029212886 -0.30313563 0.01618943 0.08238959
0003e0 cc db c9 bc 8b 74 0a be 30 4b cd 3d 24 1a c0 3d
       -0.02464094 -0.1352102 0.100241065 0.09379986
0003f0 0b c4 a6 3e c5 d6 8f bd f1 01 89 3c 00 dd d9 3d
       0.32571444 -0.07023386 0.016724559 0.106378555

encoder.layers.1.fc.2.bias f4 [4]
000000 68 e1 18 bd fc b4 8c 3c c8 71 db bd 80 1c 97 bc
       -0.03732434 0.017176144 -0.107150614 -0.018446207

encoder.layers.1.norm1.weight f4 [4]
000000 ff 53 33 3f df 0c 80 3f 78 da 6e 3f 8c 34 7c 3f
       0.7005004 1.0003928 0.93302107 0.9851768

encoder.layers.1.norm1.bias f4 [4]
000000 40 a8 61 3e b8 3c 34 3d c5 12 e2 bd 7b da 5b bd
       0.22036839 0.04400322 -0.11038736 -0.053675156

encoder.layers.1.norm2.weight f4 [4]
000000 16 98 55 3f af 4e 5f 3f 84 67 57 3f 21 d5 39 3f
       0.8343519 0.87229437 0.8414233 0.72590834

encoder.layers.1.norm2.bias f4 [4]
000000 59 7c 86 3d dc 9a 4b bc d8 42 79 bb 6f a6 96 bc
       0.06566686 -0.012427058 -0.0038034227 -0.018389909

encoder.layers.2.self_attention.query.weight f4 [4, 4]
000000 ac 43 e5 3e 6a 13 13 bd 03 e6 38 3c bf 2e 3b 3e
       0.44778192 -0.035907187 0.011285308 0.18279551
000010 12 c9 11 3f 4e 5b 5a 3e 5e f9 01 bf 2e 80 22 be
       0.56947434 0.21323892 -0.5077113 -0.15869209
000020 c3 39 28 3e 4b cd b6 3d d0 2a 67 3e 32 06 c7 bd
       0.16428284 0.08925875 0.22574925 -0.097179785
000030 0e e2 60 be 65 c7 9b be a1 99 4c bd cf ec a7 be
       -0.21961233 -0.30425563 -0.0499512 -0.32797858

encoder.layers.2.self_attention.query.bias f4 [4]
000000 95 00 c7 be af ef db 3d 88 e7 76 be e6 ae 93 be
       -0.38867632 0.107390754 -0.2411176 -0.28844374

encoder.layers.2.self_attention.key.weight f4 [4, 4]
000000 21 6c 17 bd 60 ab 9e be 11 a8 9b 3e a2 e8 a6 ba
       -0.036968354 -0.30990124 0.30401662 -0.0012734125
000010 a1 ca 59 3e 6c 4f cb b9 7f e4 c9 3d 84 b6 b1 bd
       0.21268703 -0.0003877835 0.09858035 -0.0867739
000020 60 52 98 3d aa 51 bc be a5 f8 aa 3e 9e 30 10 3e
       0.07437587 -0.36781055 0.33392826 0.14081046
000030 d5 be 87 3e 90 30 79 be 6b 7c 32 be 14 36 8f 3e
       0.2651278 -0.24334931 -0.17430274 0.27970946

encoder.layers.2.self_attention.key.bias f4 [4]
000000 d3 b7 ea 3e bc 42 96 3e 2b d8 d7 bc dc 05 93 be
       0.45843372 0.2934779 -0.026348194 -0.28715408

encoder.layers.2.self_attention.value.weight f4 [4, 4]
000000 d9 20 f5 be fd eb d3 3e 10 6e b2 3e 55 5c 05 3f
       -0.47876623 0.41390982 0.34849596 0.5209401
000010 15 37 31 3e eb c1 ad 3e 5d f9 b5 3e 01 02 89 3d
       0.17306168 0.3393701 0.35541812 0.06689835
000020 21 42 aa be 10 65 09 be 10 ec 10 bf a8 77 f9 3e
       -0.33253577 -0.13417459 -0.566102 0.48724103
000030 cd 0c 25 3e f3 61 e6 3d b1 e9 b1 3e 1f fa c1 be
       0.16118164 0.11249151 0.34748605 -0.3788614

encoder.layers.2.self_attention.value.bias f4 [4]
000000 90 4d 46 bd cb 9d 45 be 3f 11 02 be c4 7a d5 3d
       -0.048413813 -0.19298474 -0.12701891 0.10423806
